Downloading model: google/flan-t5-small
/nfs/scratch/atcs_cot/hf_cache/
Vocab size: 32100.
Model parameters: <bound method ModuleUtilsMixin.num_parameters of T5ForConditionalGeneration(
  (shared): Embedding(32128, 512)
  (encoder): T5Stack(
    (embed_tokens): Embedding(32128, 512)
    (block): ModuleList(
      (0): T5Block(
        (layer): ModuleList(
          (0): T5LayerSelfAttention(
            (SelfAttention): T5Attention(
              (q): Linear(in_features=512, out_features=384, bias=False)
              (k): Linear(in_features=512, out_features=384, bias=False)
              (v): Linear(in_features=512, out_features=384, bias=False)
              (o): Linear(in_features=384, out_features=512, bias=False)
              (relative_attention_bias): Embedding(32, 6)
            )
            (layer_norm): T5LayerNorm()
            (dropout): Dropout(p=0.1, inplace=False)
          )
          (1): T5LayerFF(
            (DenseReluDense): T5DenseGatedActDense(
              (wi_0): Linear(in_features=512, out_features=1024, bias=False)
              (wi_1): Linear(in_features=512, out_features=1024, bias=False)
              (wo): Linear(in_features=1024, out_features=512, bias=False)
              (dropout): Dropout(p=0.1, inplace=False)
              (act): NewGELUActivation()
            )
            (layer_norm): T5LayerNorm()
            (dropout): Dropout(p=0.1, inplace=False)
          )
        )
      )
      (1): T5Block(
        (layer): ModuleList(
          (0): T5LayerSelfAttention(
            (SelfAttention): T5Attention(
              (q): Linear(in_features=512, out_features=384, bias=False)
              (k): Linear(in_features=512, out_features=384, bias=False)
              (v): Linear(in_features=512, out_features=384, bias=False)
              (o): Linear(in_features=384, out_features=512, bias=False)
            )
            (layer_norm): T5LayerNorm()
            (dropout): Dropout(p=0.1, inplace=False)
          )
          (1): T5LayerFF(
            (DenseReluDense): T5DenseGatedActDense(
              (wi_0): Linear(in_features=512, out_features=1024, bias=False)
              (wi_1): Linear(in_features=512, out_features=1024, bias=False)
              (wo): Linear(in_features=1024, out_features=512, bias=False)
              (dropout): Dropout(p=0.1, inplace=False)
              (act): NewGELUActivation()
            )
            (layer_norm): T5LayerNorm()
            (dropout): Dropout(p=0.1, inplace=False)
          )
        )
      )
      (2): T5Block(
        (layer): ModuleList(
          (0): T5LayerSelfAttention(
            (SelfAttention): T5Attention(
              (q): Linear(in_features=512, out_features=384, bias=False)
              (k): Linear(in_features=512, out_features=384, bias=False)
              (v): Linear(in_features=512, out_features=384, bias=False)
              (o): Linear(in_features=384, out_features=512, bias=False)
            )
            (layer_norm): T5LayerNorm()
            (dropout): Dropout(p=0.1, inplace=False)
          )
          (1): T5LayerFF(
            (DenseReluDense): T5DenseGatedActDense(
              (wi_0): Linear(in_features=512, out_features=1024, bias=False)
              (wi_1): Linear(in_features=512, out_features=1024, bias=False)
              (wo): Linear(in_features=1024, out_features=512, bias=False)
              (dropout): Dropout(p=0.1, inplace=False)
              (act): NewGELUActivation()
            )
            (layer_norm): T5LayerNorm()
            (dropout): Dropout(p=0.1, inplace=False)
          )
        )
      )
      (3): T5Block(
        (layer): ModuleList(
          (0): T5LayerSelfAttention(
            (SelfAttention): T5Attention(
              (q): Linear(in_features=512, out_features=384, bias=False)
              (k): Linear(in_features=512, out_features=384, bias=False)
              (v): Linear(in_features=512, out_features=384, bias=False)
              (o): Linear(in_features=384, out_features=512, bias=False)
            )
            (layer_norm): T5LayerNorm()
            (dropout): Dropout(p=0.1, inplace=False)
          )
          (1): T5LayerFF(
            (DenseReluDense): T5DenseGatedActDense(
              (wi_0): Linear(in_features=512, out_features=1024, bias=False)
              (wi_1): Linear(in_features=512, out_features=1024, bias=False)
              (wo): Linear(in_features=1024, out_features=512, bias=False)
              (dropout): Dropout(p=0.1, inplace=False)
              (act): NewGELUActivation()
            )
            (layer_norm): T5LayerNorm()
            (dropout): Dropout(p=0.1, inplace=False)
          )
        )
      )
      (4): T5Block(
        (layer): ModuleList(
          (0): T5LayerSelfAttention(
            (SelfAttention): T5Attention(
              (q): Linear(in_features=512, out_features=384, bias=False)
              (k): Linear(in_features=512, out_features=384, bias=False)
              (v): Linear(in_features=512, out_features=384, bias=False)
              (o): Linear(in_features=384, out_features=512, bias=False)
            )
            (layer_norm): T5LayerNorm()
            (dropout): Dropout(p=0.1, inplace=False)
          )
          (1): T5LayerFF(
            (DenseReluDense): T5DenseGatedActDense(
              (wi_0): Linear(in_features=512, out_features=1024, bias=False)
              (wi_1): Linear(in_features=512, out_features=1024, bias=False)
              (wo): Linear(in_features=1024, out_features=512, bias=False)
              (dropout): Dropout(p=0.1, inplace=False)
              (act): NewGELUActivation()
            )
            (layer_norm): T5LayerNorm()
            (dropout): Dropout(p=0.1, inplace=False)
          )
        )
      )
      (5): T5Block(
        (layer): ModuleList(
          (0): T5LayerSelfAttention(
            (SelfAttention): T5Attention(
              (q): Linear(in_features=512, out_features=384, bias=False)
              (k): Linear(in_features=512, out_features=384, bias=False)
              (v): Linear(in_features=512, out_features=384, bias=False)
              (o): Linear(in_features=384, out_features=512, bias=False)
            )
            (layer_norm): T5LayerNorm()
            (dropout): Dropout(p=0.1, inplace=False)
          )
          (1): T5LayerFF(
            (DenseReluDense): T5DenseGatedActDense(
              (wi_0): Linear(in_features=512, out_features=1024, bias=False)
              (wi_1): Linear(in_features=512, out_features=1024, bias=False)
              (wo): Linear(in_features=1024, out_features=512, bias=False)
              (dropout): Dropout(p=0.1, inplace=False)
              (act): NewGELUActivation()
            )
            (layer_norm): T5LayerNorm()
            (dropout): Dropout(p=0.1, inplace=False)
          )
        )
      )
      (6): T5Block(
        (layer): ModuleList(
          (0): T5LayerSelfAttention(
            (SelfAttention): T5Attention(
              (q): Linear(in_features=512, out_features=384, bias=False)
              (k): Linear(in_features=512, out_features=384, bias=False)
              (v): Linear(in_features=512, out_features=384, bias=False)
              (o): Linear(in_features=384, out_features=512, bias=False)
            )
            (layer_norm): T5LayerNorm()
            (dropout): Dropout(p=0.1, inplace=False)
          )
          (1): T5LayerFF(
            (DenseReluDense): T5DenseGatedActDense(
              (wi_0): Linear(in_features=512, out_features=1024, bias=False)
              (wi_1): Linear(in_features=512, out_features=1024, bias=False)
              (wo): Linear(in_features=1024, out_features=512, bias=False)
              (dropout): Dropout(p=0.1, inplace=False)
              (act): NewGELUActivation()
            )
            (layer_norm): T5LayerNorm()
            (dropout): Dropout(p=0.1, inplace=False)
          )
        )
      )
      (7): T5Block(
        (layer): ModuleList(
          (0): T5LayerSelfAttention(
            (SelfAttention): T5Attention(
              (q): Linear(in_features=512, out_features=384, bias=False)
              (k): Linear(in_features=512, out_features=384, bias=False)
              (v): Linear(in_features=512, out_features=384, bias=False)
              (o): Linear(in_features=384, out_features=512, bias=False)
            )
            (layer_norm): T5LayerNorm()
            (dropout): Dropout(p=0.1, inplace=False)
          )
          (1): T5LayerFF(
            (DenseReluDense): T5DenseGatedActDense(
              (wi_0): Linear(in_features=512, out_features=1024, bias=False)
              (wi_1): Linear(in_features=512, out_features=1024, bias=False)
              (wo): Linear(in_features=1024, out_features=512, bias=False)
              (dropout): Dropout(p=0.1, inplace=False)
              (act): NewGELUActivation()
            )
            (layer_norm): T5LayerNorm()
            (dropout): Dropout(p=0.1, inplace=False)
          )
        )
      )
    )
    (final_layer_norm): T5LayerNorm()
    (dropout): Dropout(p=0.1, inplace=False)
  )
  (decoder): T5Stack(
    (embed_tokens): Embedding(32128, 512)
    (block): ModuleList(
      (0): T5Block(
        (layer): ModuleList(
          (0): T5LayerSelfAttention(
            (SelfAttention): T5Attention(
              (q): Linear(in_features=512, out_features=384, bias=False)
              (k): Linear(in_features=512, out_features=384, bias=False)
              (v): Linear(in_features=512, out_features=384, bias=False)
              (o): Linear(in_features=384, out_features=512, bias=False)
              (relative_attention_bias): Embedding(32, 6)
            )
            (layer_norm): T5LayerNorm()
            (dropout): Dropout(p=0.1, inplace=False)
          )
          (1): T5LayerCrossAttention(
            (EncDecAttention): T5Attention(
              (q): Linear(in_features=512, out_features=384, bias=False)
              (k): Linear(in_features=512, out_features=384, bias=False)
              (v): Linear(in_features=512, out_features=384, bias=False)
              (o): Linear(in_features=384, out_features=512, bias=False)
            )
            (layer_norm): T5LayerNorm()
            (dropout): Dropout(p=0.1, inplace=False)
          )
          (2): T5LayerFF(
            (DenseReluDense): T5DenseGatedActDense(
              (wi_0): Linear(in_features=512, out_features=1024, bias=False)
              (wi_1): Linear(in_features=512, out_features=1024, bias=False)
              (wo): Linear(in_features=1024, out_features=512, bias=False)
              (dropout): Dropout(p=0.1, inplace=False)
              (act): NewGELUActivation()
            )
            (layer_norm): T5LayerNorm()
            (dropout): Dropout(p=0.1, inplace=False)
          )
        )
      )
      (1): T5Block(
        (layer): ModuleList(
          (0): T5LayerSelfAttention(
            (SelfAttention): T5Attention(
              (q): Linear(in_features=512, out_features=384, bias=False)
              (k): Linear(in_features=512, out_features=384, bias=False)
              (v): Linear(in_features=512, out_features=384, bias=False)
              (o): Linear(in_features=384, out_features=512, bias=False)
            )
            (layer_norm): T5LayerNorm()
            (dropout): Dropout(p=0.1, inplace=False)
          )
          (1): T5LayerCrossAttention(
            (EncDecAttention): T5Attention(
              (q): Linear(in_features=512, out_features=384, bias=False)
              (k): Linear(in_features=512, out_features=384, bias=False)
              (v): Linear(in_features=512, out_features=384, bias=False)
              (o): Linear(in_features=384, out_features=512, bias=False)
            )
            (layer_norm): T5LayerNorm()
            (dropout): Dropout(p=0.1, inplace=False)
          )
          (2): T5LayerFF(
            (DenseReluDense): T5DenseGatedActDense(
              (wi_0): Linear(in_features=512, out_features=1024, bias=False)
              (wi_1): Linear(in_features=512, out_features=1024, bias=False)
              (wo): Linear(in_features=1024, out_features=512, bias=False)
              (dropout): Dropout(p=0.1, inplace=False)
              (act): NewGELUActivation()
            )
            (layer_norm): T5LayerNorm()
            (dropout): Dropout(p=0.1, inplace=False)
          )
        )
      )
      (2): T5Block(
        (layer): ModuleList(
          (0): T5LayerSelfAttention(
            (SelfAttention): T5Attention(
              (q): Linear(in_features=512, out_features=384, bias=False)
              (k): Linear(in_features=512, out_features=384, bias=False)
              (v): Linear(in_features=512, out_features=384, bias=False)
              (o): Linear(in_features=384, out_features=512, bias=False)
            )
            (layer_norm): T5LayerNorm()
            (dropout): Dropout(p=0.1, inplace=False)
          )
          (1): T5LayerCrossAttention(
            (EncDecAttention): T5Attention(
              (q): Linear(in_features=512, out_features=384, bias=False)
              (k): Linear(in_features=512, out_features=384, bias=False)
              (v): Linear(in_features=512, out_features=384, bias=False)
              (o): Linear(in_features=384, out_features=512, bias=False)
            )
            (layer_norm): T5LayerNorm()
            (dropout): Dropout(p=0.1, inplace=False)
          )
          (2): T5LayerFF(
            (DenseReluDense): T5DenseGatedActDense(
              (wi_0): Linear(in_features=512, out_features=1024, bias=False)
              (wi_1): Linear(in_features=512, out_features=1024, bias=False)
              (wo): Linear(in_features=1024, out_features=512, bias=False)
              (dropout): Dropout(p=0.1, inplace=False)
              (act): NewGELUActivation()
            )
            (layer_norm): T5LayerNorm()
            (dropout): Dropout(p=0.1, inplace=False)
          )
        )
      )
      (3): T5Block(
        (layer): ModuleList(
          (0): T5LayerSelfAttention(
            (SelfAttention): T5Attention(
              (q): Linear(in_features=512, out_features=384, bias=False)
              (k): Linear(in_features=512, out_features=384, bias=False)
              (v): Linear(in_features=512, out_features=384, bias=False)
              (o): Linear(in_features=384, out_features=512, bias=False)
            )
            (layer_norm): T5LayerNorm()
            (dropout): Dropout(p=0.1, inplace=False)
          )
          (1): T5LayerCrossAttention(
            (EncDecAttention): T5Attention(
              (q): Linear(in_features=512, out_features=384, bias=False)
              (k): Linear(in_features=512, out_features=384, bias=False)
              (v): Linear(in_features=512, out_features=384, bias=False)
              (o): Linear(in_features=384, out_features=512, bias=False)
            )
            (layer_norm): T5LayerNorm()
            (dropout): Dropout(p=0.1, inplace=False)
          )
          (2): T5LayerFF(
            (DenseReluDense): T5DenseGatedActDense(
              (wi_0): Linear(in_features=512, out_features=1024, bias=False)
              (wi_1): Linear(in_features=512, out_features=1024, bias=False)
              (wo): Linear(in_features=1024, out_features=512, bias=False)
              (dropout): Dropout(p=0.1, inplace=False)
              (act): NewGELUActivation()
            )
            (layer_norm): T5LayerNorm()
            (dropout): Dropout(p=0.1, inplace=False)
          )
        )
      )
      (4): T5Block(
        (layer): ModuleList(
          (0): T5LayerSelfAttention(
            (SelfAttention): T5Attention(
              (q): Linear(in_features=512, out_features=384, bias=False)
              (k): Linear(in_features=512, out_features=384, bias=False)
              (v): Linear(in_features=512, out_features=384, bias=False)
              (o): Linear(in_features=384, out_features=512, bias=False)
            )
            (layer_norm): T5LayerNorm()
            (dropout): Dropout(p=0.1, inplace=False)
          )
          (1): T5LayerCrossAttention(
            (EncDecAttention): T5Attention(
              (q): Linear(in_features=512, out_features=384, bias=False)
              (k): Linear(in_features=512, out_features=384, bias=False)
              (v): Linear(in_features=512, out_features=384, bias=False)
              (o): Linear(in_features=384, out_features=512, bias=False)
            )
            (layer_norm): T5LayerNorm()
            (dropout): Dropout(p=0.1, inplace=False)
          )
          (2): T5LayerFF(
            (DenseReluDense): T5DenseGatedActDense(
              (wi_0): Linear(in_features=512, out_features=1024, bias=False)
              (wi_1): Linear(in_features=512, out_features=1024, bias=False)
              (wo): Linear(in_features=1024, out_features=512, bias=False)
              (dropout): Dropout(p=0.1, inplace=False)
              (act): NewGELUActivation()
            )
            (layer_norm): T5LayerNorm()
            (dropout): Dropout(p=0.1, inplace=False)
          )
        )
      )
      (5): T5Block(
        (layer): ModuleList(
          (0): T5LayerSelfAttention(
            (SelfAttention): T5Attention(
              (q): Linear(in_features=512, out_features=384, bias=False)
              (k): Linear(in_features=512, out_features=384, bias=False)
              (v): Linear(in_features=512, out_features=384, bias=False)
              (o): Linear(in_features=384, out_features=512, bias=False)
            )
            (layer_norm): T5LayerNorm()
            (dropout): Dropout(p=0.1, inplace=False)
          )
          (1): T5LayerCrossAttention(
            (EncDecAttention): T5Attention(
              (q): Linear(in_features=512, out_features=384, bias=False)
              (k): Linear(in_features=512, out_features=384, bias=False)
              (v): Linear(in_features=512, out_features=384, bias=False)
              (o): Linear(in_features=384, out_features=512, bias=False)
            )
            (layer_norm): T5LayerNorm()
            (dropout): Dropout(p=0.1, inplace=False)
          )
          (2): T5LayerFF(
            (DenseReluDense): T5DenseGatedActDense(
              (wi_0): Linear(in_features=512, out_features=1024, bias=False)
              (wi_1): Linear(in_features=512, out_features=1024, bias=False)
              (wo): Linear(in_features=1024, out_features=512, bias=False)
              (dropout): Dropout(p=0.1, inplace=False)
              (act): NewGELUActivation()
            )
            (layer_norm): T5LayerNorm()
            (dropout): Dropout(p=0.1, inplace=False)
          )
        )
      )
      (6): T5Block(
        (layer): ModuleList(
          (0): T5LayerSelfAttention(
            (SelfAttention): T5Attention(
              (q): Linear(in_features=512, out_features=384, bias=False)
              (k): Linear(in_features=512, out_features=384, bias=False)
              (v): Linear(in_features=512, out_features=384, bias=False)
              (o): Linear(in_features=384, out_features=512, bias=False)
            )
            (layer_norm): T5LayerNorm()
            (dropout): Dropout(p=0.1, inplace=False)
          )
          (1): T5LayerCrossAttention(
            (EncDecAttention): T5Attention(
              (q): Linear(in_features=512, out_features=384, bias=False)
              (k): Linear(in_features=512, out_features=384, bias=False)
              (v): Linear(in_features=512, out_features=384, bias=False)
              (o): Linear(in_features=384, out_features=512, bias=False)
            )
            (layer_norm): T5LayerNorm()
            (dropout): Dropout(p=0.1, inplace=False)
          )
          (2): T5LayerFF(
            (DenseReluDense): T5DenseGatedActDense(
              (wi_0): Linear(in_features=512, out_features=1024, bias=False)
              (wi_1): Linear(in_features=512, out_features=1024, bias=False)
              (wo): Linear(in_features=1024, out_features=512, bias=False)
              (dropout): Dropout(p=0.1, inplace=False)
              (act): NewGELUActivation()
            )
            (layer_norm): T5LayerNorm()
            (dropout): Dropout(p=0.1, inplace=False)
          )
        )
      )
      (7): T5Block(
        (layer): ModuleList(
          (0): T5LayerSelfAttention(
            (SelfAttention): T5Attention(
              (q): Linear(in_features=512, out_features=384, bias=False)
              (k): Linear(in_features=512, out_features=384, bias=False)
              (v): Linear(in_features=512, out_features=384, bias=False)
              (o): Linear(in_features=384, out_features=512, bias=False)
            )
            (layer_norm): T5LayerNorm()
            (dropout): Dropout(p=0.1, inplace=False)
          )
          (1): T5LayerCrossAttention(
            (EncDecAttention): T5Attention(
              (q): Linear(in_features=512, out_features=384, bias=False)
              (k): Linear(in_features=512, out_features=384, bias=False)
              (v): Linear(in_features=512, out_features=384, bias=False)
              (o): Linear(in_features=384, out_features=512, bias=False)
            )
            (layer_norm): T5LayerNorm()
            (dropout): Dropout(p=0.1, inplace=False)
          )
          (2): T5LayerFF(
            (DenseReluDense): T5DenseGatedActDense(
              (wi_0): Linear(in_features=512, out_features=1024, bias=False)
              (wi_1): Linear(in_features=512, out_features=1024, bias=False)
              (wo): Linear(in_features=1024, out_features=512, bias=False)
              (dropout): Dropout(p=0.1, inplace=False)
              (act): NewGELUActivation()
            )
            (layer_norm): T5LayerNorm()
            (dropout): Dropout(p=0.1, inplace=False)
          )
        )
      )
    )
    (final_layer_norm): T5LayerNorm()
    (dropout): Dropout(p=0.1, inplace=False)
  )
  (lm_head): Linear(in_features=512, out_features=32128, bias=False)
)>
Downloading model: google/flan-t5-base
/nfs/scratch/atcs_cot/hf_cache/
Vocab size: 32100.
Model parameters: <bound method ModuleUtilsMixin.num_parameters of T5ForConditionalGeneration(
  (shared): Embedding(32128, 768)
  (encoder): T5Stack(
    (embed_tokens): Embedding(32128, 768)
    (block): ModuleList(
      (0): T5Block(
        (layer): ModuleList(
          (0): T5LayerSelfAttention(
            (SelfAttention): T5Attention(
              (q): Linear(in_features=768, out_features=768, bias=False)
              (k): Linear(in_features=768, out_features=768, bias=False)
              (v): Linear(in_features=768, out_features=768, bias=False)
              (o): Linear(in_features=768, out_features=768, bias=False)
              (relative_attention_bias): Embedding(32, 12)
            )
            (layer_norm): T5LayerNorm()
            (dropout): Dropout(p=0.1, inplace=False)
          )
          (1): T5LayerFF(
            (DenseReluDense): T5DenseGatedActDense(
              (wi_0): Linear(in_features=768, out_features=2048, bias=False)
              (wi_1): Linear(in_features=768, out_features=2048, bias=False)
              (wo): Linear(in_features=2048, out_features=768, bias=False)
              (dropout): Dropout(p=0.1, inplace=False)
              (act): NewGELUActivation()
            )
            (layer_norm): T5LayerNorm()
            (dropout): Dropout(p=0.1, inplace=False)
          )
        )
      )
      (1): T5Block(
        (layer): ModuleList(
          (0): T5LayerSelfAttention(
            (SelfAttention): T5Attention(
              (q): Linear(in_features=768, out_features=768, bias=False)
              (k): Linear(in_features=768, out_features=768, bias=False)
              (v): Linear(in_features=768, out_features=768, bias=False)
              (o): Linear(in_features=768, out_features=768, bias=False)
            )
            (layer_norm): T5LayerNorm()
            (dropout): Dropout(p=0.1, inplace=False)
          )
          (1): T5LayerFF(
            (DenseReluDense): T5DenseGatedActDense(
              (wi_0): Linear(in_features=768, out_features=2048, bias=False)
              (wi_1): Linear(in_features=768, out_features=2048, bias=False)
              (wo): Linear(in_features=2048, out_features=768, bias=False)
              (dropout): Dropout(p=0.1, inplace=False)
              (act): NewGELUActivation()
            )
            (layer_norm): T5LayerNorm()
            (dropout): Dropout(p=0.1, inplace=False)
          )
        )
      )
      (2): T5Block(
        (layer): ModuleList(
          (0): T5LayerSelfAttention(
            (SelfAttention): T5Attention(
              (q): Linear(in_features=768, out_features=768, bias=False)
              (k): Linear(in_features=768, out_features=768, bias=False)
              (v): Linear(in_features=768, out_features=768, bias=False)
              (o): Linear(in_features=768, out_features=768, bias=False)
            )
            (layer_norm): T5LayerNorm()
            (dropout): Dropout(p=0.1, inplace=False)
          )
          (1): T5LayerFF(
            (DenseReluDense): T5DenseGatedActDense(
              (wi_0): Linear(in_features=768, out_features=2048, bias=False)
              (wi_1): Linear(in_features=768, out_features=2048, bias=False)
              (wo): Linear(in_features=2048, out_features=768, bias=False)
              (dropout): Dropout(p=0.1, inplace=False)
              (act): NewGELUActivation()
            )
            (layer_norm): T5LayerNorm()
            (dropout): Dropout(p=0.1, inplace=False)
          )
        )
      )
      (3): T5Block(
        (layer): ModuleList(
          (0): T5LayerSelfAttention(
            (SelfAttention): T5Attention(
              (q): Linear(in_features=768, out_features=768, bias=False)
              (k): Linear(in_features=768, out_features=768, bias=False)
              (v): Linear(in_features=768, out_features=768, bias=False)
              (o): Linear(in_features=768, out_features=768, bias=False)
            )
            (layer_norm): T5LayerNorm()
            (dropout): Dropout(p=0.1, inplace=False)
          )
          (1): T5LayerFF(
            (DenseReluDense): T5DenseGatedActDense(
              (wi_0): Linear(in_features=768, out_features=2048, bias=False)
              (wi_1): Linear(in_features=768, out_features=2048, bias=False)
              (wo): Linear(in_features=2048, out_features=768, bias=False)
              (dropout): Dropout(p=0.1, inplace=False)
              (act): NewGELUActivation()
            )
            (layer_norm): T5LayerNorm()
            (dropout): Dropout(p=0.1, inplace=False)
          )
        )
      )
      (4): T5Block(
        (layer): ModuleList(
          (0): T5LayerSelfAttention(
            (SelfAttention): T5Attention(
              (q): Linear(in_features=768, out_features=768, bias=False)
              (k): Linear(in_features=768, out_features=768, bias=False)
              (v): Linear(in_features=768, out_features=768, bias=False)
              (o): Linear(in_features=768, out_features=768, bias=False)
            )
            (layer_norm): T5LayerNorm()
            (dropout): Dropout(p=0.1, inplace=False)
          )
          (1): T5LayerFF(
            (DenseReluDense): T5DenseGatedActDense(
              (wi_0): Linear(in_features=768, out_features=2048, bias=False)
              (wi_1): Linear(in_features=768, out_features=2048, bias=False)
              (wo): Linear(in_features=2048, out_features=768, bias=False)
              (dropout): Dropout(p=0.1, inplace=False)
              (act): NewGELUActivation()
            )
            (layer_norm): T5LayerNorm()
            (dropout): Dropout(p=0.1, inplace=False)
          )
        )
      )
      (5): T5Block(
        (layer): ModuleList(
          (0): T5LayerSelfAttention(
            (SelfAttention): T5Attention(
              (q): Linear(in_features=768, out_features=768, bias=False)
              (k): Linear(in_features=768, out_features=768, bias=False)
              (v): Linear(in_features=768, out_features=768, bias=False)
              (o): Linear(in_features=768, out_features=768, bias=False)
            )
            (layer_norm): T5LayerNorm()
            (dropout): Dropout(p=0.1, inplace=False)
          )
          (1): T5LayerFF(
            (DenseReluDense): T5DenseGatedActDense(
              (wi_0): Linear(in_features=768, out_features=2048, bias=False)
              (wi_1): Linear(in_features=768, out_features=2048, bias=False)
              (wo): Linear(in_features=2048, out_features=768, bias=False)
              (dropout): Dropout(p=0.1, inplace=False)
              (act): NewGELUActivation()
            )
            (layer_norm): T5LayerNorm()
            (dropout): Dropout(p=0.1, inplace=False)
          )
        )
      )
      (6): T5Block(
        (layer): ModuleList(
          (0): T5LayerSelfAttention(
            (SelfAttention): T5Attention(
              (q): Linear(in_features=768, out_features=768, bias=False)
              (k): Linear(in_features=768, out_features=768, bias=False)
              (v): Linear(in_features=768, out_features=768, bias=False)
              (o): Linear(in_features=768, out_features=768, bias=False)
            )
            (layer_norm): T5LayerNorm()
            (dropout): Dropout(p=0.1, inplace=False)
          )
          (1): T5LayerFF(
            (DenseReluDense): T5DenseGatedActDense(
              (wi_0): Linear(in_features=768, out_features=2048, bias=False)
              (wi_1): Linear(in_features=768, out_features=2048, bias=False)
              (wo): Linear(in_features=2048, out_features=768, bias=False)
              (dropout): Dropout(p=0.1, inplace=False)
              (act): NewGELUActivation()
            )
            (layer_norm): T5LayerNorm()
            (dropout): Dropout(p=0.1, inplace=False)
          )
        )
      )
      (7): T5Block(
        (layer): ModuleList(
          (0): T5LayerSelfAttention(
            (SelfAttention): T5Attention(
              (q): Linear(in_features=768, out_features=768, bias=False)
              (k): Linear(in_features=768, out_features=768, bias=False)
              (v): Linear(in_features=768, out_features=768, bias=False)
              (o): Linear(in_features=768, out_features=768, bias=False)
            )
            (layer_norm): T5LayerNorm()
            (dropout): Dropout(p=0.1, inplace=False)
          )
          (1): T5LayerFF(
            (DenseReluDense): T5DenseGatedActDense(
              (wi_0): Linear(in_features=768, out_features=2048, bias=False)
              (wi_1): Linear(in_features=768, out_features=2048, bias=False)
              (wo): Linear(in_features=2048, out_features=768, bias=False)
              (dropout): Dropout(p=0.1, inplace=False)
              (act): NewGELUActivation()
            )
            (layer_norm): T5LayerNorm()
            (dropout): Dropout(p=0.1, inplace=False)
          )
        )
      )
      (8): T5Block(
        (layer): ModuleList(
          (0): T5LayerSelfAttention(
            (SelfAttention): T5Attention(
              (q): Linear(in_features=768, out_features=768, bias=False)
              (k): Linear(in_features=768, out_features=768, bias=False)
              (v): Linear(in_features=768, out_features=768, bias=False)
              (o): Linear(in_features=768, out_features=768, bias=False)
            )
            (layer_norm): T5LayerNorm()
            (dropout): Dropout(p=0.1, inplace=False)
          )
          (1): T5LayerFF(
            (DenseReluDense): T5DenseGatedActDense(
              (wi_0): Linear(in_features=768, out_features=2048, bias=False)
              (wi_1): Linear(in_features=768, out_features=2048, bias=False)
              (wo): Linear(in_features=2048, out_features=768, bias=False)
              (dropout): Dropout(p=0.1, inplace=False)
              (act): NewGELUActivation()
            )
            (layer_norm): T5LayerNorm()
            (dropout): Dropout(p=0.1, inplace=False)
          )
        )
      )
      (9): T5Block(
        (layer): ModuleList(
          (0): T5LayerSelfAttention(
            (SelfAttention): T5Attention(
              (q): Linear(in_features=768, out_features=768, bias=False)
              (k): Linear(in_features=768, out_features=768, bias=False)
              (v): Linear(in_features=768, out_features=768, bias=False)
              (o): Linear(in_features=768, out_features=768, bias=False)
            )
            (layer_norm): T5LayerNorm()
            (dropout): Dropout(p=0.1, inplace=False)
          )
          (1): T5LayerFF(
            (DenseReluDense): T5DenseGatedActDense(
              (wi_0): Linear(in_features=768, out_features=2048, bias=False)
              (wi_1): Linear(in_features=768, out_features=2048, bias=False)
              (wo): Linear(in_features=2048, out_features=768, bias=False)
              (dropout): Dropout(p=0.1, inplace=False)
              (act): NewGELUActivation()
            )
            (layer_norm): T5LayerNorm()
            (dropout): Dropout(p=0.1, inplace=False)
          )
        )
      )
      (10): T5Block(
        (layer): ModuleList(
          (0): T5LayerSelfAttention(
            (SelfAttention): T5Attention(
              (q): Linear(in_features=768, out_features=768, bias=False)
              (k): Linear(in_features=768, out_features=768, bias=False)
              (v): Linear(in_features=768, out_features=768, bias=False)
              (o): Linear(in_features=768, out_features=768, bias=False)
            )
            (layer_norm): T5LayerNorm()
            (dropout): Dropout(p=0.1, inplace=False)
          )
          (1): T5LayerFF(
            (DenseReluDense): T5DenseGatedActDense(
              (wi_0): Linear(in_features=768, out_features=2048, bias=False)
              (wi_1): Linear(in_features=768, out_features=2048, bias=False)
              (wo): Linear(in_features=2048, out_features=768, bias=False)
              (dropout): Dropout(p=0.1, inplace=False)
              (act): NewGELUActivation()
            )
            (layer_norm): T5LayerNorm()
            (dropout): Dropout(p=0.1, inplace=False)
          )
        )
      )
      (11): T5Block(
        (layer): ModuleList(
          (0): T5LayerSelfAttention(
            (SelfAttention): T5Attention(
              (q): Linear(in_features=768, out_features=768, bias=False)
              (k): Linear(in_features=768, out_features=768, bias=False)
              (v): Linear(in_features=768, out_features=768, bias=False)
              (o): Linear(in_features=768, out_features=768, bias=False)
            )
            (layer_norm): T5LayerNorm()
            (dropout): Dropout(p=0.1, inplace=False)
          )
          (1): T5LayerFF(
            (DenseReluDense): T5DenseGatedActDense(
              (wi_0): Linear(in_features=768, out_features=2048, bias=False)
              (wi_1): Linear(in_features=768, out_features=2048, bias=False)
              (wo): Linear(in_features=2048, out_features=768, bias=False)
              (dropout): Dropout(p=0.1, inplace=False)
              (act): NewGELUActivation()
            )
            (layer_norm): T5LayerNorm()
            (dropout): Dropout(p=0.1, inplace=False)
          )
        )
      )
    )
    (final_layer_norm): T5LayerNorm()
    (dropout): Dropout(p=0.1, inplace=False)
  )
  (decoder): T5Stack(
    (embed_tokens): Embedding(32128, 768)
    (block): ModuleList(
      (0): T5Block(
        (layer): ModuleList(
          (0): T5LayerSelfAttention(
            (SelfAttention): T5Attention(
              (q): Linear(in_features=768, out_features=768, bias=False)
              (k): Linear(in_features=768, out_features=768, bias=False)
              (v): Linear(in_features=768, out_features=768, bias=False)
              (o): Linear(in_features=768, out_features=768, bias=False)
              (relative_attention_bias): Embedding(32, 12)
            )
            (layer_norm): T5LayerNorm()
            (dropout): Dropout(p=0.1, inplace=False)
          )
          (1): T5LayerCrossAttention(
            (EncDecAttention): T5Attention(
              (q): Linear(in_features=768, out_features=768, bias=False)
              (k): Linear(in_features=768, out_features=768, bias=False)
              (v): Linear(in_features=768, out_features=768, bias=False)
              (o): Linear(in_features=768, out_features=768, bias=False)
            )
            (layer_norm): T5LayerNorm()
            (dropout): Dropout(p=0.1, inplace=False)
          )
          (2): T5LayerFF(
            (DenseReluDense): T5DenseGatedActDense(
              (wi_0): Linear(in_features=768, out_features=2048, bias=False)
              (wi_1): Linear(in_features=768, out_features=2048, bias=False)
              (wo): Linear(in_features=2048, out_features=768, bias=False)
              (dropout): Dropout(p=0.1, inplace=False)
              (act): NewGELUActivation()
            )
            (layer_norm): T5LayerNorm()
            (dropout): Dropout(p=0.1, inplace=False)
          )
        )
      )
      (1): T5Block(
        (layer): ModuleList(
          (0): T5LayerSelfAttention(
            (SelfAttention): T5Attention(
              (q): Linear(in_features=768, out_features=768, bias=False)
              (k): Linear(in_features=768, out_features=768, bias=False)
              (v): Linear(in_features=768, out_features=768, bias=False)
              (o): Linear(in_features=768, out_features=768, bias=False)
            )
            (layer_norm): T5LayerNorm()
            (dropout): Dropout(p=0.1, inplace=False)
          )
          (1): T5LayerCrossAttention(
            (EncDecAttention): T5Attention(
              (q): Linear(in_features=768, out_features=768, bias=False)
              (k): Linear(in_features=768, out_features=768, bias=False)
              (v): Linear(in_features=768, out_features=768, bias=False)
              (o): Linear(in_features=768, out_features=768, bias=False)
            )
            (layer_norm): T5LayerNorm()
            (dropout): Dropout(p=0.1, inplace=False)
          )
          (2): T5LayerFF(
            (DenseReluDense): T5DenseGatedActDense(
              (wi_0): Linear(in_features=768, out_features=2048, bias=False)
              (wi_1): Linear(in_features=768, out_features=2048, bias=False)
              (wo): Linear(in_features=2048, out_features=768, bias=False)
              (dropout): Dropout(p=0.1, inplace=False)
              (act): NewGELUActivation()
            )
            (layer_norm): T5LayerNorm()
            (dropout): Dropout(p=0.1, inplace=False)
          )
        )
      )
      (2): T5Block(
        (layer): ModuleList(
          (0): T5LayerSelfAttention(
            (SelfAttention): T5Attention(
              (q): Linear(in_features=768, out_features=768, bias=False)
              (k): Linear(in_features=768, out_features=768, bias=False)
              (v): Linear(in_features=768, out_features=768, bias=False)
              (o): Linear(in_features=768, out_features=768, bias=False)
            )
            (layer_norm): T5LayerNorm()
            (dropout): Dropout(p=0.1, inplace=False)
          )
          (1): T5LayerCrossAttention(
            (EncDecAttention): T5Attention(
              (q): Linear(in_features=768, out_features=768, bias=False)
              (k): Linear(in_features=768, out_features=768, bias=False)
              (v): Linear(in_features=768, out_features=768, bias=False)
              (o): Linear(in_features=768, out_features=768, bias=False)
            )
            (layer_norm): T5LayerNorm()
            (dropout): Dropout(p=0.1, inplace=False)
          )
          (2): T5LayerFF(
            (DenseReluDense): T5DenseGatedActDense(
              (wi_0): Linear(in_features=768, out_features=2048, bias=False)
              (wi_1): Linear(in_features=768, out_features=2048, bias=False)
              (wo): Linear(in_features=2048, out_features=768, bias=False)
              (dropout): Dropout(p=0.1, inplace=False)
              (act): NewGELUActivation()
            )
            (layer_norm): T5LayerNorm()
            (dropout): Dropout(p=0.1, inplace=False)
          )
        )
      )
      (3): T5Block(
        (layer): ModuleList(
          (0): T5LayerSelfAttention(
            (SelfAttention): T5Attention(
              (q): Linear(in_features=768, out_features=768, bias=False)
              (k): Linear(in_features=768, out_features=768, bias=False)
              (v): Linear(in_features=768, out_features=768, bias=False)
              (o): Linear(in_features=768, out_features=768, bias=False)
            )
            (layer_norm): T5LayerNorm()
            (dropout): Dropout(p=0.1, inplace=False)
          )
          (1): T5LayerCrossAttention(
            (EncDecAttention): T5Attention(
              (q): Linear(in_features=768, out_features=768, bias=False)
              (k): Linear(in_features=768, out_features=768, bias=False)
              (v): Linear(in_features=768, out_features=768, bias=False)
              (o): Linear(in_features=768, out_features=768, bias=False)
            )
            (layer_norm): T5LayerNorm()
            (dropout): Dropout(p=0.1, inplace=False)
          )
          (2): T5LayerFF(
            (DenseReluDense): T5DenseGatedActDense(
              (wi_0): Linear(in_features=768, out_features=2048, bias=False)
              (wi_1): Linear(in_features=768, out_features=2048, bias=False)
              (wo): Linear(in_features=2048, out_features=768, bias=False)
              (dropout): Dropout(p=0.1, inplace=False)
              (act): NewGELUActivation()
            )
            (layer_norm): T5LayerNorm()
            (dropout): Dropout(p=0.1, inplace=False)
          )
        )
      )
      (4): T5Block(
        (layer): ModuleList(
          (0): T5LayerSelfAttention(
            (SelfAttention): T5Attention(
              (q): Linear(in_features=768, out_features=768, bias=False)
              (k): Linear(in_features=768, out_features=768, bias=False)
              (v): Linear(in_features=768, out_features=768, bias=False)
              (o): Linear(in_features=768, out_features=768, bias=False)
            )
            (layer_norm): T5LayerNorm()
            (dropout): Dropout(p=0.1, inplace=False)
          )
          (1): T5LayerCrossAttention(
            (EncDecAttention): T5Attention(
              (q): Linear(in_features=768, out_features=768, bias=False)
              (k): Linear(in_features=768, out_features=768, bias=False)
              (v): Linear(in_features=768, out_features=768, bias=False)
              (o): Linear(in_features=768, out_features=768, bias=False)
            )
            (layer_norm): T5LayerNorm()
            (dropout): Dropout(p=0.1, inplace=False)
          )
          (2): T5LayerFF(
            (DenseReluDense): T5DenseGatedActDense(
              (wi_0): Linear(in_features=768, out_features=2048, bias=False)
              (wi_1): Linear(in_features=768, out_features=2048, bias=False)
              (wo): Linear(in_features=2048, out_features=768, bias=False)
              (dropout): Dropout(p=0.1, inplace=False)
              (act): NewGELUActivation()
            )
            (layer_norm): T5LayerNorm()
            (dropout): Dropout(p=0.1, inplace=False)
          )
        )
      )
      (5): T5Block(
        (layer): ModuleList(
          (0): T5LayerSelfAttention(
            (SelfAttention): T5Attention(
              (q): Linear(in_features=768, out_features=768, bias=False)
              (k): Linear(in_features=768, out_features=768, bias=False)
              (v): Linear(in_features=768, out_features=768, bias=False)
              (o): Linear(in_features=768, out_features=768, bias=False)
            )
            (layer_norm): T5LayerNorm()
            (dropout): Dropout(p=0.1, inplace=False)
          )
          (1): T5LayerCrossAttention(
            (EncDecAttention): T5Attention(
              (q): Linear(in_features=768, out_features=768, bias=False)
              (k): Linear(in_features=768, out_features=768, bias=False)
              (v): Linear(in_features=768, out_features=768, bias=False)
              (o): Linear(in_features=768, out_features=768, bias=False)
            )
            (layer_norm): T5LayerNorm()
            (dropout): Dropout(p=0.1, inplace=False)
          )
          (2): T5LayerFF(
            (DenseReluDense): T5DenseGatedActDense(
              (wi_0): Linear(in_features=768, out_features=2048, bias=False)
              (wi_1): Linear(in_features=768, out_features=2048, bias=False)
              (wo): Linear(in_features=2048, out_features=768, bias=False)
              (dropout): Dropout(p=0.1, inplace=False)
              (act): NewGELUActivation()
            )
            (layer_norm): T5LayerNorm()
            (dropout): Dropout(p=0.1, inplace=False)
          )
        )
      )
      (6): T5Block(
        (layer): ModuleList(
          (0): T5LayerSelfAttention(
            (SelfAttention): T5Attention(
              (q): Linear(in_features=768, out_features=768, bias=False)
              (k): Linear(in_features=768, out_features=768, bias=False)
              (v): Linear(in_features=768, out_features=768, bias=False)
              (o): Linear(in_features=768, out_features=768, bias=False)
            )
            (layer_norm): T5LayerNorm()
            (dropout): Dropout(p=0.1, inplace=False)
          )
          (1): T5LayerCrossAttention(
            (EncDecAttention): T5Attention(
              (q): Linear(in_features=768, out_features=768, bias=False)
              (k): Linear(in_features=768, out_features=768, bias=False)
              (v): Linear(in_features=768, out_features=768, bias=False)
              (o): Linear(in_features=768, out_features=768, bias=False)
            )
            (layer_norm): T5LayerNorm()
            (dropout): Dropout(p=0.1, inplace=False)
          )
          (2): T5LayerFF(
            (DenseReluDense): T5DenseGatedActDense(
              (wi_0): Linear(in_features=768, out_features=2048, bias=False)
              (wi_1): Linear(in_features=768, out_features=2048, bias=False)
              (wo): Linear(in_features=2048, out_features=768, bias=False)
              (dropout): Dropout(p=0.1, inplace=False)
              (act): NewGELUActivation()
            )
            (layer_norm): T5LayerNorm()
            (dropout): Dropout(p=0.1, inplace=False)
          )
        )
      )
      (7): T5Block(
        (layer): ModuleList(
          (0): T5LayerSelfAttention(
            (SelfAttention): T5Attention(
              (q): Linear(in_features=768, out_features=768, bias=False)
              (k): Linear(in_features=768, out_features=768, bias=False)
              (v): Linear(in_features=768, out_features=768, bias=False)
              (o): Linear(in_features=768, out_features=768, bias=False)
            )
            (layer_norm): T5LayerNorm()
            (dropout): Dropout(p=0.1, inplace=False)
          )
          (1): T5LayerCrossAttention(
            (EncDecAttention): T5Attention(
              (q): Linear(in_features=768, out_features=768, bias=False)
              (k): Linear(in_features=768, out_features=768, bias=False)
              (v): Linear(in_features=768, out_features=768, bias=False)
              (o): Linear(in_features=768, out_features=768, bias=False)
            )
            (layer_norm): T5LayerNorm()
            (dropout): Dropout(p=0.1, inplace=False)
          )
          (2): T5LayerFF(
            (DenseReluDense): T5DenseGatedActDense(
              (wi_0): Linear(in_features=768, out_features=2048, bias=False)
              (wi_1): Linear(in_features=768, out_features=2048, bias=False)
              (wo): Linear(in_features=2048, out_features=768, bias=False)
              (dropout): Dropout(p=0.1, inplace=False)
              (act): NewGELUActivation()
            )
            (layer_norm): T5LayerNorm()
            (dropout): Dropout(p=0.1, inplace=False)
          )
        )
      )
      (8): T5Block(
        (layer): ModuleList(
          (0): T5LayerSelfAttention(
            (SelfAttention): T5Attention(
              (q): Linear(in_features=768, out_features=768, bias=False)
              (k): Linear(in_features=768, out_features=768, bias=False)
              (v): Linear(in_features=768, out_features=768, bias=False)
              (o): Linear(in_features=768, out_features=768, bias=False)
            )
            (layer_norm): T5LayerNorm()
            (dropout): Dropout(p=0.1, inplace=False)
          )
          (1): T5LayerCrossAttention(
            (EncDecAttention): T5Attention(
              (q): Linear(in_features=768, out_features=768, bias=False)
              (k): Linear(in_features=768, out_features=768, bias=False)
              (v): Linear(in_features=768, out_features=768, bias=False)
              (o): Linear(in_features=768, out_features=768, bias=False)
            )
            (layer_norm): T5LayerNorm()
            (dropout): Dropout(p=0.1, inplace=False)
          )
          (2): T5LayerFF(
            (DenseReluDense): T5DenseGatedActDense(
              (wi_0): Linear(in_features=768, out_features=2048, bias=False)
              (wi_1): Linear(in_features=768, out_features=2048, bias=False)
              (wo): Linear(in_features=2048, out_features=768, bias=False)
              (dropout): Dropout(p=0.1, inplace=False)
              (act): NewGELUActivation()
            )
            (layer_norm): T5LayerNorm()
            (dropout): Dropout(p=0.1, inplace=False)
          )
        )
      )
      (9): T5Block(
        (layer): ModuleList(
          (0): T5LayerSelfAttention(
            (SelfAttention): T5Attention(
              (q): Linear(in_features=768, out_features=768, bias=False)
              (k): Linear(in_features=768, out_features=768, bias=False)
              (v): Linear(in_features=768, out_features=768, bias=False)
              (o): Linear(in_features=768, out_features=768, bias=False)
            )
            (layer_norm): T5LayerNorm()
            (dropout): Dropout(p=0.1, inplace=False)
          )
          (1): T5LayerCrossAttention(
            (EncDecAttention): T5Attention(
              (q): Linear(in_features=768, out_features=768, bias=False)
              (k): Linear(in_features=768, out_features=768, bias=False)
              (v): Linear(in_features=768, out_features=768, bias=False)
              (o): Linear(in_features=768, out_features=768, bias=False)
            )
            (layer_norm): T5LayerNorm()
            (dropout): Dropout(p=0.1, inplace=False)
          )
          (2): T5LayerFF(
            (DenseReluDense): T5DenseGatedActDense(
              (wi_0): Linear(in_features=768, out_features=2048, bias=False)
              (wi_1): Linear(in_features=768, out_features=2048, bias=False)
              (wo): Linear(in_features=2048, out_features=768, bias=False)
              (dropout): Dropout(p=0.1, inplace=False)
              (act): NewGELUActivation()
            )
            (layer_norm): T5LayerNorm()
            (dropout): Dropout(p=0.1, inplace=False)
          )
        )
      )
      (10): T5Block(
        (layer): ModuleList(
          (0): T5LayerSelfAttention(
            (SelfAttention): T5Attention(
              (q): Linear(in_features=768, out_features=768, bias=False)
              (k): Linear(in_features=768, out_features=768, bias=False)
              (v): Linear(in_features=768, out_features=768, bias=False)
              (o): Linear(in_features=768, out_features=768, bias=False)
            )
            (layer_norm): T5LayerNorm()
            (dropout): Dropout(p=0.1, inplace=False)
          )
          (1): T5LayerCrossAttention(
            (EncDecAttention): T5Attention(
              (q): Linear(in_features=768, out_features=768, bias=False)
              (k): Linear(in_features=768, out_features=768, bias=False)
              (v): Linear(in_features=768, out_features=768, bias=False)
              (o): Linear(in_features=768, out_features=768, bias=False)
            )
            (layer_norm): T5LayerNorm()
            (dropout): Dropout(p=0.1, inplace=False)
          )
          (2): T5LayerFF(
            (DenseReluDense): T5DenseGatedActDense(
              (wi_0): Linear(in_features=768, out_features=2048, bias=False)
              (wi_1): Linear(in_features=768, out_features=2048, bias=False)
              (wo): Linear(in_features=2048, out_features=768, bias=False)
              (dropout): Dropout(p=0.1, inplace=False)
              (act): NewGELUActivation()
            )
            (layer_norm): T5LayerNorm()
            (dropout): Dropout(p=0.1, inplace=False)
          )
        )
      )
      (11): T5Block(
        (layer): ModuleList(
          (0): T5LayerSelfAttention(
            (SelfAttention): T5Attention(
              (q): Linear(in_features=768, out_features=768, bias=False)
              (k): Linear(in_features=768, out_features=768, bias=False)
              (v): Linear(in_features=768, out_features=768, bias=False)
              (o): Linear(in_features=768, out_features=768, bias=False)
            )
            (layer_norm): T5LayerNorm()
            (dropout): Dropout(p=0.1, inplace=False)
          )
          (1): T5LayerCrossAttention(
            (EncDecAttention): T5Attention(
              (q): Linear(in_features=768, out_features=768, bias=False)
              (k): Linear(in_features=768, out_features=768, bias=False)
              (v): Linear(in_features=768, out_features=768, bias=False)
              (o): Linear(in_features=768, out_features=768, bias=False)
            )
            (layer_norm): T5LayerNorm()
            (dropout): Dropout(p=0.1, inplace=False)
          )
          (2): T5LayerFF(
            (DenseReluDense): T5DenseGatedActDense(
              (wi_0): Linear(in_features=768, out_features=2048, bias=False)
              (wi_1): Linear(in_features=768, out_features=2048, bias=False)
              (wo): Linear(in_features=2048, out_features=768, bias=False)
              (dropout): Dropout(p=0.1, inplace=False)
              (act): NewGELUActivation()
            )
            (layer_norm): T5LayerNorm()
            (dropout): Dropout(p=0.1, inplace=False)
          )
        )
      )
    )
    (final_layer_norm): T5LayerNorm()
    (dropout): Dropout(p=0.1, inplace=False)
  )
  (lm_head): Linear(in_features=768, out_features=32128, bias=False)
)>
Downloading model: bigscience/T0_3B
/nfs/scratch/atcs_cot/hf_cache/
Downloading ()okenizer_config.json:   0%|          | 0.00/1.86k [00:00<?, ?B/s]Downloading ()okenizer_config.json: 100%|| 1.86k/1.86k [00:00<00:00, 4.36MB/s]
Downloading spiece.model:   0%|          | 0.00/792k [00:00<?, ?B/s]Downloading spiece.model: 100%|| 792k/792k [00:00<00:00, 139MB/s]
Downloading ()cial_tokens_map.json:   0%|          | 0.00/1.79k [00:00<?, ?B/s]Downloading ()cial_tokens_map.json: 100%|| 1.79k/1.79k [00:00<00:00, 6.14MB/s]
Vocab size: 32100.
Model parameters: <bound method ModuleUtilsMixin.num_parameters of T5ForConditionalGeneration(
  (shared): Embedding(32128, 2048)
  (encoder): T5Stack(
    (embed_tokens): Embedding(32128, 2048)
    (block): ModuleList(
      (0): T5Block(
        (layer): ModuleList(
          (0): T5LayerSelfAttention(
            (SelfAttention): T5Attention(
              (q): Linear(in_features=2048, out_features=2048, bias=False)
              (k): Linear(in_features=2048, out_features=2048, bias=False)
              (v): Linear(in_features=2048, out_features=2048, bias=False)
              (o): Linear(in_features=2048, out_features=2048, bias=False)
              (relative_attention_bias): Embedding(32, 32)
            )
            (layer_norm): T5LayerNorm()
            (dropout): Dropout(p=0.1, inplace=False)
          )
          (1): T5LayerFF(
            (DenseReluDense): T5DenseGatedActDense(
              (wi_0): Linear(in_features=2048, out_features=5120, bias=False)
              (wi_1): Linear(in_features=2048, out_features=5120, bias=False)
              (wo): Linear(in_features=5120, out_features=2048, bias=False)
              (dropout): Dropout(p=0.1, inplace=False)
              (act): NewGELUActivation()
            )
            (layer_norm): T5LayerNorm()
            (dropout): Dropout(p=0.1, inplace=False)
          )
        )
      )
      (1): T5Block(
        (layer): ModuleList(
          (0): T5LayerSelfAttention(
            (SelfAttention): T5Attention(
              (q): Linear(in_features=2048, out_features=2048, bias=False)
              (k): Linear(in_features=2048, out_features=2048, bias=False)
              (v): Linear(in_features=2048, out_features=2048, bias=False)
              (o): Linear(in_features=2048, out_features=2048, bias=False)
            )
            (layer_norm): T5LayerNorm()
            (dropout): Dropout(p=0.1, inplace=False)
          )
          (1): T5LayerFF(
            (DenseReluDense): T5DenseGatedActDense(
              (wi_0): Linear(in_features=2048, out_features=5120, bias=False)
              (wi_1): Linear(in_features=2048, out_features=5120, bias=False)
              (wo): Linear(in_features=5120, out_features=2048, bias=False)
              (dropout): Dropout(p=0.1, inplace=False)
              (act): NewGELUActivation()
            )
            (layer_norm): T5LayerNorm()
            (dropout): Dropout(p=0.1, inplace=False)
          )
        )
      )
      (2): T5Block(
        (layer): ModuleList(
          (0): T5LayerSelfAttention(
            (SelfAttention): T5Attention(
              (q): Linear(in_features=2048, out_features=2048, bias=False)
              (k): Linear(in_features=2048, out_features=2048, bias=False)
              (v): Linear(in_features=2048, out_features=2048, bias=False)
              (o): Linear(in_features=2048, out_features=2048, bias=False)
            )
            (layer_norm): T5LayerNorm()
            (dropout): Dropout(p=0.1, inplace=False)
          )
          (1): T5LayerFF(
            (DenseReluDense): T5DenseGatedActDense(
              (wi_0): Linear(in_features=2048, out_features=5120, bias=False)
              (wi_1): Linear(in_features=2048, out_features=5120, bias=False)
              (wo): Linear(in_features=5120, out_features=2048, bias=False)
              (dropout): Dropout(p=0.1, inplace=False)
              (act): NewGELUActivation()
            )
            (layer_norm): T5LayerNorm()
            (dropout): Dropout(p=0.1, inplace=False)
          )
        )
      )
      (3): T5Block(
        (layer): ModuleList(
          (0): T5LayerSelfAttention(
            (SelfAttention): T5Attention(
              (q): Linear(in_features=2048, out_features=2048, bias=False)
              (k): Linear(in_features=2048, out_features=2048, bias=False)
              (v): Linear(in_features=2048, out_features=2048, bias=False)
              (o): Linear(in_features=2048, out_features=2048, bias=False)
            )
            (layer_norm): T5LayerNorm()
            (dropout): Dropout(p=0.1, inplace=False)
          )
          (1): T5LayerFF(
            (DenseReluDense): T5DenseGatedActDense(
              (wi_0): Linear(in_features=2048, out_features=5120, bias=False)
              (wi_1): Linear(in_features=2048, out_features=5120, bias=False)
              (wo): Linear(in_features=5120, out_features=2048, bias=False)
              (dropout): Dropout(p=0.1, inplace=False)
              (act): NewGELUActivation()
            )
            (layer_norm): T5LayerNorm()
            (dropout): Dropout(p=0.1, inplace=False)
          )
        )
      )
      (4): T5Block(
        (layer): ModuleList(
          (0): T5LayerSelfAttention(
            (SelfAttention): T5Attention(
              (q): Linear(in_features=2048, out_features=2048, bias=False)
              (k): Linear(in_features=2048, out_features=2048, bias=False)
              (v): Linear(in_features=2048, out_features=2048, bias=False)
              (o): Linear(in_features=2048, out_features=2048, bias=False)
            )
            (layer_norm): T5LayerNorm()
            (dropout): Dropout(p=0.1, inplace=False)
          )
          (1): T5LayerFF(
            (DenseReluDense): T5DenseGatedActDense(
              (wi_0): Linear(in_features=2048, out_features=5120, bias=False)
              (wi_1): Linear(in_features=2048, out_features=5120, bias=False)
              (wo): Linear(in_features=5120, out_features=2048, bias=False)
              (dropout): Dropout(p=0.1, inplace=False)
              (act): NewGELUActivation()
            )
            (layer_norm): T5LayerNorm()
            (dropout): Dropout(p=0.1, inplace=False)
          )
        )
      )
      (5): T5Block(
        (layer): ModuleList(
          (0): T5LayerSelfAttention(
            (SelfAttention): T5Attention(
              (q): Linear(in_features=2048, out_features=2048, bias=False)
              (k): Linear(in_features=2048, out_features=2048, bias=False)
              (v): Linear(in_features=2048, out_features=2048, bias=False)
              (o): Linear(in_features=2048, out_features=2048, bias=False)
            )
            (layer_norm): T5LayerNorm()
            (dropout): Dropout(p=0.1, inplace=False)
          )
          (1): T5LayerFF(
            (DenseReluDense): T5DenseGatedActDense(
              (wi_0): Linear(in_features=2048, out_features=5120, bias=False)
              (wi_1): Linear(in_features=2048, out_features=5120, bias=False)
              (wo): Linear(in_features=5120, out_features=2048, bias=False)
              (dropout): Dropout(p=0.1, inplace=False)
              (act): NewGELUActivation()
            )
            (layer_norm): T5LayerNorm()
            (dropout): Dropout(p=0.1, inplace=False)
          )
        )
      )
      (6): T5Block(
        (layer): ModuleList(
          (0): T5LayerSelfAttention(
            (SelfAttention): T5Attention(
              (q): Linear(in_features=2048, out_features=2048, bias=False)
              (k): Linear(in_features=2048, out_features=2048, bias=False)
              (v): Linear(in_features=2048, out_features=2048, bias=False)
              (o): Linear(in_features=2048, out_features=2048, bias=False)
            )
            (layer_norm): T5LayerNorm()
            (dropout): Dropout(p=0.1, inplace=False)
          )
          (1): T5LayerFF(
            (DenseReluDense): T5DenseGatedActDense(
              (wi_0): Linear(in_features=2048, out_features=5120, bias=False)
              (wi_1): Linear(in_features=2048, out_features=5120, bias=False)
              (wo): Linear(in_features=5120, out_features=2048, bias=False)
              (dropout): Dropout(p=0.1, inplace=False)
              (act): NewGELUActivation()
            )
            (layer_norm): T5LayerNorm()
            (dropout): Dropout(p=0.1, inplace=False)
          )
        )
      )
      (7): T5Block(
        (layer): ModuleList(
          (0): T5LayerSelfAttention(
            (SelfAttention): T5Attention(
              (q): Linear(in_features=2048, out_features=2048, bias=False)
              (k): Linear(in_features=2048, out_features=2048, bias=False)
              (v): Linear(in_features=2048, out_features=2048, bias=False)
              (o): Linear(in_features=2048, out_features=2048, bias=False)
            )
            (layer_norm): T5LayerNorm()
            (dropout): Dropout(p=0.1, inplace=False)
          )
          (1): T5LayerFF(
            (DenseReluDense): T5DenseGatedActDense(
              (wi_0): Linear(in_features=2048, out_features=5120, bias=False)
              (wi_1): Linear(in_features=2048, out_features=5120, bias=False)
              (wo): Linear(in_features=5120, out_features=2048, bias=False)
              (dropout): Dropout(p=0.1, inplace=False)
              (act): NewGELUActivation()
            )
            (layer_norm): T5LayerNorm()
            (dropout): Dropout(p=0.1, inplace=False)
          )
        )
      )
      (8): T5Block(
        (layer): ModuleList(
          (0): T5LayerSelfAttention(
            (SelfAttention): T5Attention(
              (q): Linear(in_features=2048, out_features=2048, bias=False)
              (k): Linear(in_features=2048, out_features=2048, bias=False)
              (v): Linear(in_features=2048, out_features=2048, bias=False)
              (o): Linear(in_features=2048, out_features=2048, bias=False)
            )
            (layer_norm): T5LayerNorm()
            (dropout): Dropout(p=0.1, inplace=False)
          )
          (1): T5LayerFF(
            (DenseReluDense): T5DenseGatedActDense(
              (wi_0): Linear(in_features=2048, out_features=5120, bias=False)
              (wi_1): Linear(in_features=2048, out_features=5120, bias=False)
              (wo): Linear(in_features=5120, out_features=2048, bias=False)
              (dropout): Dropout(p=0.1, inplace=False)
              (act): NewGELUActivation()
            )
            (layer_norm): T5LayerNorm()
            (dropout): Dropout(p=0.1, inplace=False)
          )
        )
      )
      (9): T5Block(
        (layer): ModuleList(
          (0): T5LayerSelfAttention(
            (SelfAttention): T5Attention(
              (q): Linear(in_features=2048, out_features=2048, bias=False)
              (k): Linear(in_features=2048, out_features=2048, bias=False)
              (v): Linear(in_features=2048, out_features=2048, bias=False)
              (o): Linear(in_features=2048, out_features=2048, bias=False)
            )
            (layer_norm): T5LayerNorm()
            (dropout): Dropout(p=0.1, inplace=False)
          )
          (1): T5LayerFF(
            (DenseReluDense): T5DenseGatedActDense(
              (wi_0): Linear(in_features=2048, out_features=5120, bias=False)
              (wi_1): Linear(in_features=2048, out_features=5120, bias=False)
              (wo): Linear(in_features=5120, out_features=2048, bias=False)
              (dropout): Dropout(p=0.1, inplace=False)
              (act): NewGELUActivation()
            )
            (layer_norm): T5LayerNorm()
            (dropout): Dropout(p=0.1, inplace=False)
          )
        )
      )
      (10): T5Block(
        (layer): ModuleList(
          (0): T5LayerSelfAttention(
            (SelfAttention): T5Attention(
              (q): Linear(in_features=2048, out_features=2048, bias=False)
              (k): Linear(in_features=2048, out_features=2048, bias=False)
              (v): Linear(in_features=2048, out_features=2048, bias=False)
              (o): Linear(in_features=2048, out_features=2048, bias=False)
            )
            (layer_norm): T5LayerNorm()
            (dropout): Dropout(p=0.1, inplace=False)
          )
          (1): T5LayerFF(
            (DenseReluDense): T5DenseGatedActDense(
              (wi_0): Linear(in_features=2048, out_features=5120, bias=False)
              (wi_1): Linear(in_features=2048, out_features=5120, bias=False)
              (wo): Linear(in_features=5120, out_features=2048, bias=False)
              (dropout): Dropout(p=0.1, inplace=False)
              (act): NewGELUActivation()
            )
            (layer_norm): T5LayerNorm()
            (dropout): Dropout(p=0.1, inplace=False)
          )
        )
      )
      (11): T5Block(
        (layer): ModuleList(
          (0): T5LayerSelfAttention(
            (SelfAttention): T5Attention(
              (q): Linear(in_features=2048, out_features=2048, bias=False)
              (k): Linear(in_features=2048, out_features=2048, bias=False)
              (v): Linear(in_features=2048, out_features=2048, bias=False)
              (o): Linear(in_features=2048, out_features=2048, bias=False)
            )
            (layer_norm): T5LayerNorm()
            (dropout): Dropout(p=0.1, inplace=False)
          )
          (1): T5LayerFF(
            (DenseReluDense): T5DenseGatedActDense(
              (wi_0): Linear(in_features=2048, out_features=5120, bias=False)
              (wi_1): Linear(in_features=2048, out_features=5120, bias=False)
              (wo): Linear(in_features=5120, out_features=2048, bias=False)
              (dropout): Dropout(p=0.1, inplace=False)
              (act): NewGELUActivation()
            )
            (layer_norm): T5LayerNorm()
            (dropout): Dropout(p=0.1, inplace=False)
          )
        )
      )
      (12): T5Block(
        (layer): ModuleList(
          (0): T5LayerSelfAttention(
            (SelfAttention): T5Attention(
              (q): Linear(in_features=2048, out_features=2048, bias=False)
              (k): Linear(in_features=2048, out_features=2048, bias=False)
              (v): Linear(in_features=2048, out_features=2048, bias=False)
              (o): Linear(in_features=2048, out_features=2048, bias=False)
            )
            (layer_norm): T5LayerNorm()
            (dropout): Dropout(p=0.1, inplace=False)
          )
          (1): T5LayerFF(
            (DenseReluDense): T5DenseGatedActDense(
              (wi_0): Linear(in_features=2048, out_features=5120, bias=False)
              (wi_1): Linear(in_features=2048, out_features=5120, bias=False)
              (wo): Linear(in_features=5120, out_features=2048, bias=False)
              (dropout): Dropout(p=0.1, inplace=False)
              (act): NewGELUActivation()
            )
            (layer_norm): T5LayerNorm()
            (dropout): Dropout(p=0.1, inplace=False)
          )
        )
      )
      (13): T5Block(
        (layer): ModuleList(
          (0): T5LayerSelfAttention(
            (SelfAttention): T5Attention(
              (q): Linear(in_features=2048, out_features=2048, bias=False)
              (k): Linear(in_features=2048, out_features=2048, bias=False)
              (v): Linear(in_features=2048, out_features=2048, bias=False)
              (o): Linear(in_features=2048, out_features=2048, bias=False)
            )
            (layer_norm): T5LayerNorm()
            (dropout): Dropout(p=0.1, inplace=False)
          )
          (1): T5LayerFF(
            (DenseReluDense): T5DenseGatedActDense(
              (wi_0): Linear(in_features=2048, out_features=5120, bias=False)
              (wi_1): Linear(in_features=2048, out_features=5120, bias=False)
              (wo): Linear(in_features=5120, out_features=2048, bias=False)
              (dropout): Dropout(p=0.1, inplace=False)
              (act): NewGELUActivation()
            )
            (layer_norm): T5LayerNorm()
            (dropout): Dropout(p=0.1, inplace=False)
          )
        )
      )
      (14): T5Block(
        (layer): ModuleList(
          (0): T5LayerSelfAttention(
            (SelfAttention): T5Attention(
              (q): Linear(in_features=2048, out_features=2048, bias=False)
              (k): Linear(in_features=2048, out_features=2048, bias=False)
              (v): Linear(in_features=2048, out_features=2048, bias=False)
              (o): Linear(in_features=2048, out_features=2048, bias=False)
            )
            (layer_norm): T5LayerNorm()
            (dropout): Dropout(p=0.1, inplace=False)
          )
          (1): T5LayerFF(
            (DenseReluDense): T5DenseGatedActDense(
              (wi_0): Linear(in_features=2048, out_features=5120, bias=False)
              (wi_1): Linear(in_features=2048, out_features=5120, bias=False)
              (wo): Linear(in_features=5120, out_features=2048, bias=False)
              (dropout): Dropout(p=0.1, inplace=False)
              (act): NewGELUActivation()
            )
            (layer_norm): T5LayerNorm()
            (dropout): Dropout(p=0.1, inplace=False)
          )
        )
      )
      (15): T5Block(
        (layer): ModuleList(
          (0): T5LayerSelfAttention(
            (SelfAttention): T5Attention(
              (q): Linear(in_features=2048, out_features=2048, bias=False)
              (k): Linear(in_features=2048, out_features=2048, bias=False)
              (v): Linear(in_features=2048, out_features=2048, bias=False)
              (o): Linear(in_features=2048, out_features=2048, bias=False)
            )
            (layer_norm): T5LayerNorm()
            (dropout): Dropout(p=0.1, inplace=False)
          )
          (1): T5LayerFF(
            (DenseReluDense): T5DenseGatedActDense(
              (wi_0): Linear(in_features=2048, out_features=5120, bias=False)
              (wi_1): Linear(in_features=2048, out_features=5120, bias=False)
              (wo): Linear(in_features=5120, out_features=2048, bias=False)
              (dropout): Dropout(p=0.1, inplace=False)
              (act): NewGELUActivation()
            )
            (layer_norm): T5LayerNorm()
            (dropout): Dropout(p=0.1, inplace=False)
          )
        )
      )
      (16): T5Block(
        (layer): ModuleList(
          (0): T5LayerSelfAttention(
            (SelfAttention): T5Attention(
              (q): Linear(in_features=2048, out_features=2048, bias=False)
              (k): Linear(in_features=2048, out_features=2048, bias=False)
              (v): Linear(in_features=2048, out_features=2048, bias=False)
              (o): Linear(in_features=2048, out_features=2048, bias=False)
            )
            (layer_norm): T5LayerNorm()
            (dropout): Dropout(p=0.1, inplace=False)
          )
          (1): T5LayerFF(
            (DenseReluDense): T5DenseGatedActDense(
              (wi_0): Linear(in_features=2048, out_features=5120, bias=False)
              (wi_1): Linear(in_features=2048, out_features=5120, bias=False)
              (wo): Linear(in_features=5120, out_features=2048, bias=False)
              (dropout): Dropout(p=0.1, inplace=False)
              (act): NewGELUActivation()
            )
            (layer_norm): T5LayerNorm()
            (dropout): Dropout(p=0.1, inplace=False)
          )
        )
      )
      (17): T5Block(
        (layer): ModuleList(
          (0): T5LayerSelfAttention(
            (SelfAttention): T5Attention(
              (q): Linear(in_features=2048, out_features=2048, bias=False)
              (k): Linear(in_features=2048, out_features=2048, bias=False)
              (v): Linear(in_features=2048, out_features=2048, bias=False)
              (o): Linear(in_features=2048, out_features=2048, bias=False)
            )
            (layer_norm): T5LayerNorm()
            (dropout): Dropout(p=0.1, inplace=False)
          )
          (1): T5LayerFF(
            (DenseReluDense): T5DenseGatedActDense(
              (wi_0): Linear(in_features=2048, out_features=5120, bias=False)
              (wi_1): Linear(in_features=2048, out_features=5120, bias=False)
              (wo): Linear(in_features=5120, out_features=2048, bias=False)
              (dropout): Dropout(p=0.1, inplace=False)
              (act): NewGELUActivation()
            )
            (layer_norm): T5LayerNorm()
            (dropout): Dropout(p=0.1, inplace=False)
          )
        )
      )
      (18): T5Block(
        (layer): ModuleList(
          (0): T5LayerSelfAttention(
            (SelfAttention): T5Attention(
              (q): Linear(in_features=2048, out_features=2048, bias=False)
              (k): Linear(in_features=2048, out_features=2048, bias=False)
              (v): Linear(in_features=2048, out_features=2048, bias=False)
              (o): Linear(in_features=2048, out_features=2048, bias=False)
            )
            (layer_norm): T5LayerNorm()
            (dropout): Dropout(p=0.1, inplace=False)
          )
          (1): T5LayerFF(
            (DenseReluDense): T5DenseGatedActDense(
              (wi_0): Linear(in_features=2048, out_features=5120, bias=False)
              (wi_1): Linear(in_features=2048, out_features=5120, bias=False)
              (wo): Linear(in_features=5120, out_features=2048, bias=False)
              (dropout): Dropout(p=0.1, inplace=False)
              (act): NewGELUActivation()
            )
            (layer_norm): T5LayerNorm()
            (dropout): Dropout(p=0.1, inplace=False)
          )
        )
      )
      (19): T5Block(
        (layer): ModuleList(
          (0): T5LayerSelfAttention(
            (SelfAttention): T5Attention(
              (q): Linear(in_features=2048, out_features=2048, bias=False)
              (k): Linear(in_features=2048, out_features=2048, bias=False)
              (v): Linear(in_features=2048, out_features=2048, bias=False)
              (o): Linear(in_features=2048, out_features=2048, bias=False)
            )
            (layer_norm): T5LayerNorm()
            (dropout): Dropout(p=0.1, inplace=False)
          )
          (1): T5LayerFF(
            (DenseReluDense): T5DenseGatedActDense(
              (wi_0): Linear(in_features=2048, out_features=5120, bias=False)
              (wi_1): Linear(in_features=2048, out_features=5120, bias=False)
              (wo): Linear(in_features=5120, out_features=2048, bias=False)
              (dropout): Dropout(p=0.1, inplace=False)
              (act): NewGELUActivation()
            )
            (layer_norm): T5LayerNorm()
            (dropout): Dropout(p=0.1, inplace=False)
          )
        )
      )
      (20): T5Block(
        (layer): ModuleList(
          (0): T5LayerSelfAttention(
            (SelfAttention): T5Attention(
              (q): Linear(in_features=2048, out_features=2048, bias=False)
              (k): Linear(in_features=2048, out_features=2048, bias=False)
              (v): Linear(in_features=2048, out_features=2048, bias=False)
              (o): Linear(in_features=2048, out_features=2048, bias=False)
            )
            (layer_norm): T5LayerNorm()
            (dropout): Dropout(p=0.1, inplace=False)
          )
          (1): T5LayerFF(
            (DenseReluDense): T5DenseGatedActDense(
              (wi_0): Linear(in_features=2048, out_features=5120, bias=False)
              (wi_1): Linear(in_features=2048, out_features=5120, bias=False)
              (wo): Linear(in_features=5120, out_features=2048, bias=False)
              (dropout): Dropout(p=0.1, inplace=False)
              (act): NewGELUActivation()
            )
            (layer_norm): T5LayerNorm()
            (dropout): Dropout(p=0.1, inplace=False)
          )
        )
      )
      (21): T5Block(
        (layer): ModuleList(
          (0): T5LayerSelfAttention(
            (SelfAttention): T5Attention(
              (q): Linear(in_features=2048, out_features=2048, bias=False)
              (k): Linear(in_features=2048, out_features=2048, bias=False)
              (v): Linear(in_features=2048, out_features=2048, bias=False)
              (o): Linear(in_features=2048, out_features=2048, bias=False)
            )
            (layer_norm): T5LayerNorm()
            (dropout): Dropout(p=0.1, inplace=False)
          )
          (1): T5LayerFF(
            (DenseReluDense): T5DenseGatedActDense(
              (wi_0): Linear(in_features=2048, out_features=5120, bias=False)
              (wi_1): Linear(in_features=2048, out_features=5120, bias=False)
              (wo): Linear(in_features=5120, out_features=2048, bias=False)
              (dropout): Dropout(p=0.1, inplace=False)
              (act): NewGELUActivation()
            )
            (layer_norm): T5LayerNorm()
            (dropout): Dropout(p=0.1, inplace=False)
          )
        )
      )
      (22): T5Block(
        (layer): ModuleList(
          (0): T5LayerSelfAttention(
            (SelfAttention): T5Attention(
              (q): Linear(in_features=2048, out_features=2048, bias=False)
              (k): Linear(in_features=2048, out_features=2048, bias=False)
              (v): Linear(in_features=2048, out_features=2048, bias=False)
              (o): Linear(in_features=2048, out_features=2048, bias=False)
            )
            (layer_norm): T5LayerNorm()
            (dropout): Dropout(p=0.1, inplace=False)
          )
          (1): T5LayerFF(
            (DenseReluDense): T5DenseGatedActDense(
              (wi_0): Linear(in_features=2048, out_features=5120, bias=False)
              (wi_1): Linear(in_features=2048, out_features=5120, bias=False)
              (wo): Linear(in_features=5120, out_features=2048, bias=False)
              (dropout): Dropout(p=0.1, inplace=False)
              (act): NewGELUActivation()
            )
            (layer_norm): T5LayerNorm()
            (dropout): Dropout(p=0.1, inplace=False)
          )
        )
      )
      (23): T5Block(
        (layer): ModuleList(
          (0): T5LayerSelfAttention(
            (SelfAttention): T5Attention(
              (q): Linear(in_features=2048, out_features=2048, bias=False)
              (k): Linear(in_features=2048, out_features=2048, bias=False)
              (v): Linear(in_features=2048, out_features=2048, bias=False)
              (o): Linear(in_features=2048, out_features=2048, bias=False)
            )
            (layer_norm): T5LayerNorm()
            (dropout): Dropout(p=0.1, inplace=False)
          )
          (1): T5LayerFF(
            (DenseReluDense): T5DenseGatedActDense(
              (wi_0): Linear(in_features=2048, out_features=5120, bias=False)
              (wi_1): Linear(in_features=2048, out_features=5120, bias=False)
              (wo): Linear(in_features=5120, out_features=2048, bias=False)
              (dropout): Dropout(p=0.1, inplace=False)
              (act): NewGELUActivation()
            )
            (layer_norm): T5LayerNorm()
            (dropout): Dropout(p=0.1, inplace=False)
          )
        )
      )
    )
    (final_layer_norm): T5LayerNorm()
    (dropout): Dropout(p=0.1, inplace=False)
  )
  (decoder): T5Stack(
    (embed_tokens): Embedding(32128, 2048)
    (block): ModuleList(
      (0): T5Block(
        (layer): ModuleList(
          (0): T5LayerSelfAttention(
            (SelfAttention): T5Attention(
              (q): Linear(in_features=2048, out_features=2048, bias=False)
              (k): Linear(in_features=2048, out_features=2048, bias=False)
              (v): Linear(in_features=2048, out_features=2048, bias=False)
              (o): Linear(in_features=2048, out_features=2048, bias=False)
              (relative_attention_bias): Embedding(32, 32)
            )
            (layer_norm): T5LayerNorm()
            (dropout): Dropout(p=0.1, inplace=False)
          )
          (1): T5LayerCrossAttention(
            (EncDecAttention): T5Attention(
              (q): Linear(in_features=2048, out_features=2048, bias=False)
              (k): Linear(in_features=2048, out_features=2048, bias=False)
              (v): Linear(in_features=2048, out_features=2048, bias=False)
              (o): Linear(in_features=2048, out_features=2048, bias=False)
            )
            (layer_norm): T5LayerNorm()
            (dropout): Dropout(p=0.1, inplace=False)
          )
          (2): T5LayerFF(
            (DenseReluDense): T5DenseGatedActDense(
              (wi_0): Linear(in_features=2048, out_features=5120, bias=False)
              (wi_1): Linear(in_features=2048, out_features=5120, bias=False)
              (wo): Linear(in_features=5120, out_features=2048, bias=False)
              (dropout): Dropout(p=0.1, inplace=False)
              (act): NewGELUActivation()
            )
            (layer_norm): T5LayerNorm()
            (dropout): Dropout(p=0.1, inplace=False)
          )
        )
      )
      (1): T5Block(
        (layer): ModuleList(
          (0): T5LayerSelfAttention(
            (SelfAttention): T5Attention(
              (q): Linear(in_features=2048, out_features=2048, bias=False)
              (k): Linear(in_features=2048, out_features=2048, bias=False)
              (v): Linear(in_features=2048, out_features=2048, bias=False)
              (o): Linear(in_features=2048, out_features=2048, bias=False)
            )
            (layer_norm): T5LayerNorm()
            (dropout): Dropout(p=0.1, inplace=False)
          )
          (1): T5LayerCrossAttention(
            (EncDecAttention): T5Attention(
              (q): Linear(in_features=2048, out_features=2048, bias=False)
              (k): Linear(in_features=2048, out_features=2048, bias=False)
              (v): Linear(in_features=2048, out_features=2048, bias=False)
              (o): Linear(in_features=2048, out_features=2048, bias=False)
            )
            (layer_norm): T5LayerNorm()
            (dropout): Dropout(p=0.1, inplace=False)
          )
          (2): T5LayerFF(
            (DenseReluDense): T5DenseGatedActDense(
              (wi_0): Linear(in_features=2048, out_features=5120, bias=False)
              (wi_1): Linear(in_features=2048, out_features=5120, bias=False)
              (wo): Linear(in_features=5120, out_features=2048, bias=False)
              (dropout): Dropout(p=0.1, inplace=False)
              (act): NewGELUActivation()
            )
            (layer_norm): T5LayerNorm()
            (dropout): Dropout(p=0.1, inplace=False)
          )
        )
      )
      (2): T5Block(
        (layer): ModuleList(
          (0): T5LayerSelfAttention(
            (SelfAttention): T5Attention(
              (q): Linear(in_features=2048, out_features=2048, bias=False)
              (k): Linear(in_features=2048, out_features=2048, bias=False)
              (v): Linear(in_features=2048, out_features=2048, bias=False)
              (o): Linear(in_features=2048, out_features=2048, bias=False)
            )
            (layer_norm): T5LayerNorm()
            (dropout): Dropout(p=0.1, inplace=False)
          )
          (1): T5LayerCrossAttention(
            (EncDecAttention): T5Attention(
              (q): Linear(in_features=2048, out_features=2048, bias=False)
              (k): Linear(in_features=2048, out_features=2048, bias=False)
              (v): Linear(in_features=2048, out_features=2048, bias=False)
              (o): Linear(in_features=2048, out_features=2048, bias=False)
            )
            (layer_norm): T5LayerNorm()
            (dropout): Dropout(p=0.1, inplace=False)
          )
          (2): T5LayerFF(
            (DenseReluDense): T5DenseGatedActDense(
              (wi_0): Linear(in_features=2048, out_features=5120, bias=False)
              (wi_1): Linear(in_features=2048, out_features=5120, bias=False)
              (wo): Linear(in_features=5120, out_features=2048, bias=False)
              (dropout): Dropout(p=0.1, inplace=False)
              (act): NewGELUActivation()
            )
            (layer_norm): T5LayerNorm()
            (dropout): Dropout(p=0.1, inplace=False)
          )
        )
      )
      (3): T5Block(
        (layer): ModuleList(
          (0): T5LayerSelfAttention(
            (SelfAttention): T5Attention(
              (q): Linear(in_features=2048, out_features=2048, bias=False)
              (k): Linear(in_features=2048, out_features=2048, bias=False)
              (v): Linear(in_features=2048, out_features=2048, bias=False)
              (o): Linear(in_features=2048, out_features=2048, bias=False)
            )
            (layer_norm): T5LayerNorm()
            (dropout): Dropout(p=0.1, inplace=False)
          )
          (1): T5LayerCrossAttention(
            (EncDecAttention): T5Attention(
              (q): Linear(in_features=2048, out_features=2048, bias=False)
              (k): Linear(in_features=2048, out_features=2048, bias=False)
              (v): Linear(in_features=2048, out_features=2048, bias=False)
              (o): Linear(in_features=2048, out_features=2048, bias=False)
            )
            (layer_norm): T5LayerNorm()
            (dropout): Dropout(p=0.1, inplace=False)
          )
          (2): T5LayerFF(
            (DenseReluDense): T5DenseGatedActDense(
              (wi_0): Linear(in_features=2048, out_features=5120, bias=False)
              (wi_1): Linear(in_features=2048, out_features=5120, bias=False)
              (wo): Linear(in_features=5120, out_features=2048, bias=False)
              (dropout): Dropout(p=0.1, inplace=False)
              (act): NewGELUActivation()
            )
            (layer_norm): T5LayerNorm()
            (dropout): Dropout(p=0.1, inplace=False)
          )
        )
      )
      (4): T5Block(
        (layer): ModuleList(
          (0): T5LayerSelfAttention(
            (SelfAttention): T5Attention(
              (q): Linear(in_features=2048, out_features=2048, bias=False)
              (k): Linear(in_features=2048, out_features=2048, bias=False)
              (v): Linear(in_features=2048, out_features=2048, bias=False)
              (o): Linear(in_features=2048, out_features=2048, bias=False)
            )
            (layer_norm): T5LayerNorm()
            (dropout): Dropout(p=0.1, inplace=False)
          )
          (1): T5LayerCrossAttention(
            (EncDecAttention): T5Attention(
              (q): Linear(in_features=2048, out_features=2048, bias=False)
              (k): Linear(in_features=2048, out_features=2048, bias=False)
              (v): Linear(in_features=2048, out_features=2048, bias=False)
              (o): Linear(in_features=2048, out_features=2048, bias=False)
            )
            (layer_norm): T5LayerNorm()
            (dropout): Dropout(p=0.1, inplace=False)
          )
          (2): T5LayerFF(
            (DenseReluDense): T5DenseGatedActDense(
              (wi_0): Linear(in_features=2048, out_features=5120, bias=False)
              (wi_1): Linear(in_features=2048, out_features=5120, bias=False)
              (wo): Linear(in_features=5120, out_features=2048, bias=False)
              (dropout): Dropout(p=0.1, inplace=False)
              (act): NewGELUActivation()
            )
            (layer_norm): T5LayerNorm()
            (dropout): Dropout(p=0.1, inplace=False)
          )
        )
      )
      (5): T5Block(
        (layer): ModuleList(
          (0): T5LayerSelfAttention(
            (SelfAttention): T5Attention(
              (q): Linear(in_features=2048, out_features=2048, bias=False)
              (k): Linear(in_features=2048, out_features=2048, bias=False)
              (v): Linear(in_features=2048, out_features=2048, bias=False)
              (o): Linear(in_features=2048, out_features=2048, bias=False)
            )
            (layer_norm): T5LayerNorm()
            (dropout): Dropout(p=0.1, inplace=False)
          )
          (1): T5LayerCrossAttention(
            (EncDecAttention): T5Attention(
              (q): Linear(in_features=2048, out_features=2048, bias=False)
              (k): Linear(in_features=2048, out_features=2048, bias=False)
              (v): Linear(in_features=2048, out_features=2048, bias=False)
              (o): Linear(in_features=2048, out_features=2048, bias=False)
            )
            (layer_norm): T5LayerNorm()
            (dropout): Dropout(p=0.1, inplace=False)
          )
          (2): T5LayerFF(
            (DenseReluDense): T5DenseGatedActDense(
              (wi_0): Linear(in_features=2048, out_features=5120, bias=False)
              (wi_1): Linear(in_features=2048, out_features=5120, bias=False)
              (wo): Linear(in_features=5120, out_features=2048, bias=False)
              (dropout): Dropout(p=0.1, inplace=False)
              (act): NewGELUActivation()
            )
            (layer_norm): T5LayerNorm()
            (dropout): Dropout(p=0.1, inplace=False)
          )
        )
      )
      (6): T5Block(
        (layer): ModuleList(
          (0): T5LayerSelfAttention(
            (SelfAttention): T5Attention(
              (q): Linear(in_features=2048, out_features=2048, bias=False)
              (k): Linear(in_features=2048, out_features=2048, bias=False)
              (v): Linear(in_features=2048, out_features=2048, bias=False)
              (o): Linear(in_features=2048, out_features=2048, bias=False)
            )
            (layer_norm): T5LayerNorm()
            (dropout): Dropout(p=0.1, inplace=False)
          )
          (1): T5LayerCrossAttention(
            (EncDecAttention): T5Attention(
              (q): Linear(in_features=2048, out_features=2048, bias=False)
              (k): Linear(in_features=2048, out_features=2048, bias=False)
              (v): Linear(in_features=2048, out_features=2048, bias=False)
              (o): Linear(in_features=2048, out_features=2048, bias=False)
            )
            (layer_norm): T5LayerNorm()
            (dropout): Dropout(p=0.1, inplace=False)
          )
          (2): T5LayerFF(
            (DenseReluDense): T5DenseGatedActDense(
              (wi_0): Linear(in_features=2048, out_features=5120, bias=False)
              (wi_1): Linear(in_features=2048, out_features=5120, bias=False)
              (wo): Linear(in_features=5120, out_features=2048, bias=False)
              (dropout): Dropout(p=0.1, inplace=False)
              (act): NewGELUActivation()
            )
            (layer_norm): T5LayerNorm()
            (dropout): Dropout(p=0.1, inplace=False)
          )
        )
      )
      (7): T5Block(
        (layer): ModuleList(
          (0): T5LayerSelfAttention(
            (SelfAttention): T5Attention(
              (q): Linear(in_features=2048, out_features=2048, bias=False)
              (k): Linear(in_features=2048, out_features=2048, bias=False)
              (v): Linear(in_features=2048, out_features=2048, bias=False)
              (o): Linear(in_features=2048, out_features=2048, bias=False)
            )
            (layer_norm): T5LayerNorm()
            (dropout): Dropout(p=0.1, inplace=False)
          )
          (1): T5LayerCrossAttention(
            (EncDecAttention): T5Attention(
              (q): Linear(in_features=2048, out_features=2048, bias=False)
              (k): Linear(in_features=2048, out_features=2048, bias=False)
              (v): Linear(in_features=2048, out_features=2048, bias=False)
              (o): Linear(in_features=2048, out_features=2048, bias=False)
            )
            (layer_norm): T5LayerNorm()
            (dropout): Dropout(p=0.1, inplace=False)
          )
          (2): T5LayerFF(
            (DenseReluDense): T5DenseGatedActDense(
              (wi_0): Linear(in_features=2048, out_features=5120, bias=False)
              (wi_1): Linear(in_features=2048, out_features=5120, bias=False)
              (wo): Linear(in_features=5120, out_features=2048, bias=False)
              (dropout): Dropout(p=0.1, inplace=False)
              (act): NewGELUActivation()
            )
            (layer_norm): T5LayerNorm()
            (dropout): Dropout(p=0.1, inplace=False)
          )
        )
      )
      (8): T5Block(
        (layer): ModuleList(
          (0): T5LayerSelfAttention(
            (SelfAttention): T5Attention(
              (q): Linear(in_features=2048, out_features=2048, bias=False)
              (k): Linear(in_features=2048, out_features=2048, bias=False)
              (v): Linear(in_features=2048, out_features=2048, bias=False)
              (o): Linear(in_features=2048, out_features=2048, bias=False)
            )
            (layer_norm): T5LayerNorm()
            (dropout): Dropout(p=0.1, inplace=False)
          )
          (1): T5LayerCrossAttention(
            (EncDecAttention): T5Attention(
              (q): Linear(in_features=2048, out_features=2048, bias=False)
              (k): Linear(in_features=2048, out_features=2048, bias=False)
              (v): Linear(in_features=2048, out_features=2048, bias=False)
              (o): Linear(in_features=2048, out_features=2048, bias=False)
            )
            (layer_norm): T5LayerNorm()
            (dropout): Dropout(p=0.1, inplace=False)
          )
          (2): T5LayerFF(
            (DenseReluDense): T5DenseGatedActDense(
              (wi_0): Linear(in_features=2048, out_features=5120, bias=False)
              (wi_1): Linear(in_features=2048, out_features=5120, bias=False)
              (wo): Linear(in_features=5120, out_features=2048, bias=False)
              (dropout): Dropout(p=0.1, inplace=False)
              (act): NewGELUActivation()
            )
            (layer_norm): T5LayerNorm()
            (dropout): Dropout(p=0.1, inplace=False)
          )
        )
      )
      (9): T5Block(
        (layer): ModuleList(
          (0): T5LayerSelfAttention(
            (SelfAttention): T5Attention(
              (q): Linear(in_features=2048, out_features=2048, bias=False)
              (k): Linear(in_features=2048, out_features=2048, bias=False)
              (v): Linear(in_features=2048, out_features=2048, bias=False)
              (o): Linear(in_features=2048, out_features=2048, bias=False)
            )
            (layer_norm): T5LayerNorm()
            (dropout): Dropout(p=0.1, inplace=False)
          )
          (1): T5LayerCrossAttention(
            (EncDecAttention): T5Attention(
              (q): Linear(in_features=2048, out_features=2048, bias=False)
              (k): Linear(in_features=2048, out_features=2048, bias=False)
              (v): Linear(in_features=2048, out_features=2048, bias=False)
              (o): Linear(in_features=2048, out_features=2048, bias=False)
            )
            (layer_norm): T5LayerNorm()
            (dropout): Dropout(p=0.1, inplace=False)
          )
          (2): T5LayerFF(
            (DenseReluDense): T5DenseGatedActDense(
              (wi_0): Linear(in_features=2048, out_features=5120, bias=False)
              (wi_1): Linear(in_features=2048, out_features=5120, bias=False)
              (wo): Linear(in_features=5120, out_features=2048, bias=False)
              (dropout): Dropout(p=0.1, inplace=False)
              (act): NewGELUActivation()
            )
            (layer_norm): T5LayerNorm()
            (dropout): Dropout(p=0.1, inplace=False)
          )
        )
      )
      (10): T5Block(
        (layer): ModuleList(
          (0): T5LayerSelfAttention(
            (SelfAttention): T5Attention(
              (q): Linear(in_features=2048, out_features=2048, bias=False)
              (k): Linear(in_features=2048, out_features=2048, bias=False)
              (v): Linear(in_features=2048, out_features=2048, bias=False)
              (o): Linear(in_features=2048, out_features=2048, bias=False)
            )
            (layer_norm): T5LayerNorm()
            (dropout): Dropout(p=0.1, inplace=False)
          )
          (1): T5LayerCrossAttention(
            (EncDecAttention): T5Attention(
              (q): Linear(in_features=2048, out_features=2048, bias=False)
              (k): Linear(in_features=2048, out_features=2048, bias=False)
              (v): Linear(in_features=2048, out_features=2048, bias=False)
              (o): Linear(in_features=2048, out_features=2048, bias=False)
            )
            (layer_norm): T5LayerNorm()
            (dropout): Dropout(p=0.1, inplace=False)
          )
          (2): T5LayerFF(
            (DenseReluDense): T5DenseGatedActDense(
              (wi_0): Linear(in_features=2048, out_features=5120, bias=False)
              (wi_1): Linear(in_features=2048, out_features=5120, bias=False)
              (wo): Linear(in_features=5120, out_features=2048, bias=False)
              (dropout): Dropout(p=0.1, inplace=False)
              (act): NewGELUActivation()
            )
            (layer_norm): T5LayerNorm()
            (dropout): Dropout(p=0.1, inplace=False)
          )
        )
      )
      (11): T5Block(
        (layer): ModuleList(
          (0): T5LayerSelfAttention(
            (SelfAttention): T5Attention(
              (q): Linear(in_features=2048, out_features=2048, bias=False)
              (k): Linear(in_features=2048, out_features=2048, bias=False)
              (v): Linear(in_features=2048, out_features=2048, bias=False)
              (o): Linear(in_features=2048, out_features=2048, bias=False)
            )
            (layer_norm): T5LayerNorm()
            (dropout): Dropout(p=0.1, inplace=False)
          )
          (1): T5LayerCrossAttention(
            (EncDecAttention): T5Attention(
              (q): Linear(in_features=2048, out_features=2048, bias=False)
              (k): Linear(in_features=2048, out_features=2048, bias=False)
              (v): Linear(in_features=2048, out_features=2048, bias=False)
              (o): Linear(in_features=2048, out_features=2048, bias=False)
            )
            (layer_norm): T5LayerNorm()
            (dropout): Dropout(p=0.1, inplace=False)
          )
          (2): T5LayerFF(
            (DenseReluDense): T5DenseGatedActDense(
              (wi_0): Linear(in_features=2048, out_features=5120, bias=False)
              (wi_1): Linear(in_features=2048, out_features=5120, bias=False)
              (wo): Linear(in_features=5120, out_features=2048, bias=False)
              (dropout): Dropout(p=0.1, inplace=False)
              (act): NewGELUActivation()
            )
            (layer_norm): T5LayerNorm()
            (dropout): Dropout(p=0.1, inplace=False)
          )
        )
      )
      (12): T5Block(
        (layer): ModuleList(
          (0): T5LayerSelfAttention(
            (SelfAttention): T5Attention(
              (q): Linear(in_features=2048, out_features=2048, bias=False)
              (k): Linear(in_features=2048, out_features=2048, bias=False)
              (v): Linear(in_features=2048, out_features=2048, bias=False)
              (o): Linear(in_features=2048, out_features=2048, bias=False)
            )
            (layer_norm): T5LayerNorm()
            (dropout): Dropout(p=0.1, inplace=False)
          )
          (1): T5LayerCrossAttention(
            (EncDecAttention): T5Attention(
              (q): Linear(in_features=2048, out_features=2048, bias=False)
              (k): Linear(in_features=2048, out_features=2048, bias=False)
              (v): Linear(in_features=2048, out_features=2048, bias=False)
              (o): Linear(in_features=2048, out_features=2048, bias=False)
            )
            (layer_norm): T5LayerNorm()
            (dropout): Dropout(p=0.1, inplace=False)
          )
          (2): T5LayerFF(
            (DenseReluDense): T5DenseGatedActDense(
              (wi_0): Linear(in_features=2048, out_features=5120, bias=False)
              (wi_1): Linear(in_features=2048, out_features=5120, bias=False)
              (wo): Linear(in_features=5120, out_features=2048, bias=False)
              (dropout): Dropout(p=0.1, inplace=False)
              (act): NewGELUActivation()
            )
            (layer_norm): T5LayerNorm()
            (dropout): Dropout(p=0.1, inplace=False)
          )
        )
      )
      (13): T5Block(
        (layer): ModuleList(
          (0): T5LayerSelfAttention(
            (SelfAttention): T5Attention(
              (q): Linear(in_features=2048, out_features=2048, bias=False)
              (k): Linear(in_features=2048, out_features=2048, bias=False)
              (v): Linear(in_features=2048, out_features=2048, bias=False)
              (o): Linear(in_features=2048, out_features=2048, bias=False)
            )
            (layer_norm): T5LayerNorm()
            (dropout): Dropout(p=0.1, inplace=False)
          )
          (1): T5LayerCrossAttention(
            (EncDecAttention): T5Attention(
              (q): Linear(in_features=2048, out_features=2048, bias=False)
              (k): Linear(in_features=2048, out_features=2048, bias=False)
              (v): Linear(in_features=2048, out_features=2048, bias=False)
              (o): Linear(in_features=2048, out_features=2048, bias=False)
            )
            (layer_norm): T5LayerNorm()
            (dropout): Dropout(p=0.1, inplace=False)
          )
          (2): T5LayerFF(
            (DenseReluDense): T5DenseGatedActDense(
              (wi_0): Linear(in_features=2048, out_features=5120, bias=False)
              (wi_1): Linear(in_features=2048, out_features=5120, bias=False)
              (wo): Linear(in_features=5120, out_features=2048, bias=False)
              (dropout): Dropout(p=0.1, inplace=False)
              (act): NewGELUActivation()
            )
            (layer_norm): T5LayerNorm()
            (dropout): Dropout(p=0.1, inplace=False)
          )
        )
      )
      (14): T5Block(
        (layer): ModuleList(
          (0): T5LayerSelfAttention(
            (SelfAttention): T5Attention(
              (q): Linear(in_features=2048, out_features=2048, bias=False)
              (k): Linear(in_features=2048, out_features=2048, bias=False)
              (v): Linear(in_features=2048, out_features=2048, bias=False)
              (o): Linear(in_features=2048, out_features=2048, bias=False)
            )
            (layer_norm): T5LayerNorm()
            (dropout): Dropout(p=0.1, inplace=False)
          )
          (1): T5LayerCrossAttention(
            (EncDecAttention): T5Attention(
              (q): Linear(in_features=2048, out_features=2048, bias=False)
              (k): Linear(in_features=2048, out_features=2048, bias=False)
              (v): Linear(in_features=2048, out_features=2048, bias=False)
              (o): Linear(in_features=2048, out_features=2048, bias=False)
            )
            (layer_norm): T5LayerNorm()
            (dropout): Dropout(p=0.1, inplace=False)
          )
          (2): T5LayerFF(
            (DenseReluDense): T5DenseGatedActDense(
              (wi_0): Linear(in_features=2048, out_features=5120, bias=False)
              (wi_1): Linear(in_features=2048, out_features=5120, bias=False)
              (wo): Linear(in_features=5120, out_features=2048, bias=False)
              (dropout): Dropout(p=0.1, inplace=False)
              (act): NewGELUActivation()
            )
            (layer_norm): T5LayerNorm()
            (dropout): Dropout(p=0.1, inplace=False)
          )
        )
      )
      (15): T5Block(
        (layer): ModuleList(
          (0): T5LayerSelfAttention(
            (SelfAttention): T5Attention(
              (q): Linear(in_features=2048, out_features=2048, bias=False)
              (k): Linear(in_features=2048, out_features=2048, bias=False)
              (v): Linear(in_features=2048, out_features=2048, bias=False)
              (o): Linear(in_features=2048, out_features=2048, bias=False)
            )
            (layer_norm): T5LayerNorm()
            (dropout): Dropout(p=0.1, inplace=False)
          )
          (1): T5LayerCrossAttention(
            (EncDecAttention): T5Attention(
              (q): Linear(in_features=2048, out_features=2048, bias=False)
              (k): Linear(in_features=2048, out_features=2048, bias=False)
              (v): Linear(in_features=2048, out_features=2048, bias=False)
              (o): Linear(in_features=2048, out_features=2048, bias=False)
            )
            (layer_norm): T5LayerNorm()
            (dropout): Dropout(p=0.1, inplace=False)
          )
          (2): T5LayerFF(
            (DenseReluDense): T5DenseGatedActDense(
              (wi_0): Linear(in_features=2048, out_features=5120, bias=False)
              (wi_1): Linear(in_features=2048, out_features=5120, bias=False)
              (wo): Linear(in_features=5120, out_features=2048, bias=False)
              (dropout): Dropout(p=0.1, inplace=False)
              (act): NewGELUActivation()
            )
            (layer_norm): T5LayerNorm()
            (dropout): Dropout(p=0.1, inplace=False)
          )
        )
      )
      (16): T5Block(
        (layer): ModuleList(
          (0): T5LayerSelfAttention(
            (SelfAttention): T5Attention(
              (q): Linear(in_features=2048, out_features=2048, bias=False)
              (k): Linear(in_features=2048, out_features=2048, bias=False)
              (v): Linear(in_features=2048, out_features=2048, bias=False)
              (o): Linear(in_features=2048, out_features=2048, bias=False)
            )
            (layer_norm): T5LayerNorm()
            (dropout): Dropout(p=0.1, inplace=False)
          )
          (1): T5LayerCrossAttention(
            (EncDecAttention): T5Attention(
              (q): Linear(in_features=2048, out_features=2048, bias=False)
              (k): Linear(in_features=2048, out_features=2048, bias=False)
              (v): Linear(in_features=2048, out_features=2048, bias=False)
              (o): Linear(in_features=2048, out_features=2048, bias=False)
            )
            (layer_norm): T5LayerNorm()
            (dropout): Dropout(p=0.1, inplace=False)
          )
          (2): T5LayerFF(
            (DenseReluDense): T5DenseGatedActDense(
              (wi_0): Linear(in_features=2048, out_features=5120, bias=False)
              (wi_1): Linear(in_features=2048, out_features=5120, bias=False)
              (wo): Linear(in_features=5120, out_features=2048, bias=False)
              (dropout): Dropout(p=0.1, inplace=False)
              (act): NewGELUActivation()
            )
            (layer_norm): T5LayerNorm()
            (dropout): Dropout(p=0.1, inplace=False)
          )
        )
      )
      (17): T5Block(
        (layer): ModuleList(
          (0): T5LayerSelfAttention(
            (SelfAttention): T5Attention(
              (q): Linear(in_features=2048, out_features=2048, bias=False)
              (k): Linear(in_features=2048, out_features=2048, bias=False)
              (v): Linear(in_features=2048, out_features=2048, bias=False)
              (o): Linear(in_features=2048, out_features=2048, bias=False)
            )
            (layer_norm): T5LayerNorm()
            (dropout): Dropout(p=0.1, inplace=False)
          )
          (1): T5LayerCrossAttention(
            (EncDecAttention): T5Attention(
              (q): Linear(in_features=2048, out_features=2048, bias=False)
              (k): Linear(in_features=2048, out_features=2048, bias=False)
              (v): Linear(in_features=2048, out_features=2048, bias=False)
              (o): Linear(in_features=2048, out_features=2048, bias=False)
            )
            (layer_norm): T5LayerNorm()
            (dropout): Dropout(p=0.1, inplace=False)
          )
          (2): T5LayerFF(
            (DenseReluDense): T5DenseGatedActDense(
              (wi_0): Linear(in_features=2048, out_features=5120, bias=False)
              (wi_1): Linear(in_features=2048, out_features=5120, bias=False)
              (wo): Linear(in_features=5120, out_features=2048, bias=False)
              (dropout): Dropout(p=0.1, inplace=False)
              (act): NewGELUActivation()
            )
            (layer_norm): T5LayerNorm()
            (dropout): Dropout(p=0.1, inplace=False)
          )
        )
      )
      (18): T5Block(
        (layer): ModuleList(
          (0): T5LayerSelfAttention(
            (SelfAttention): T5Attention(
              (q): Linear(in_features=2048, out_features=2048, bias=False)
              (k): Linear(in_features=2048, out_features=2048, bias=False)
              (v): Linear(in_features=2048, out_features=2048, bias=False)
              (o): Linear(in_features=2048, out_features=2048, bias=False)
            )
            (layer_norm): T5LayerNorm()
            (dropout): Dropout(p=0.1, inplace=False)
          )
          (1): T5LayerCrossAttention(
            (EncDecAttention): T5Attention(
              (q): Linear(in_features=2048, out_features=2048, bias=False)
              (k): Linear(in_features=2048, out_features=2048, bias=False)
              (v): Linear(in_features=2048, out_features=2048, bias=False)
              (o): Linear(in_features=2048, out_features=2048, bias=False)
            )
            (layer_norm): T5LayerNorm()
            (dropout): Dropout(p=0.1, inplace=False)
          )
          (2): T5LayerFF(
            (DenseReluDense): T5DenseGatedActDense(
              (wi_0): Linear(in_features=2048, out_features=5120, bias=False)
              (wi_1): Linear(in_features=2048, out_features=5120, bias=False)
              (wo): Linear(in_features=5120, out_features=2048, bias=False)
              (dropout): Dropout(p=0.1, inplace=False)
              (act): NewGELUActivation()
            )
            (layer_norm): T5LayerNorm()
            (dropout): Dropout(p=0.1, inplace=False)
          )
        )
      )
      (19): T5Block(
        (layer): ModuleList(
          (0): T5LayerSelfAttention(
            (SelfAttention): T5Attention(
              (q): Linear(in_features=2048, out_features=2048, bias=False)
              (k): Linear(in_features=2048, out_features=2048, bias=False)
              (v): Linear(in_features=2048, out_features=2048, bias=False)
              (o): Linear(in_features=2048, out_features=2048, bias=False)
            )
            (layer_norm): T5LayerNorm()
            (dropout): Dropout(p=0.1, inplace=False)
          )
          (1): T5LayerCrossAttention(
            (EncDecAttention): T5Attention(
              (q): Linear(in_features=2048, out_features=2048, bias=False)
              (k): Linear(in_features=2048, out_features=2048, bias=False)
              (v): Linear(in_features=2048, out_features=2048, bias=False)
              (o): Linear(in_features=2048, out_features=2048, bias=False)
            )
            (layer_norm): T5LayerNorm()
            (dropout): Dropout(p=0.1, inplace=False)
          )
          (2): T5LayerFF(
            (DenseReluDense): T5DenseGatedActDense(
              (wi_0): Linear(in_features=2048, out_features=5120, bias=False)
              (wi_1): Linear(in_features=2048, out_features=5120, bias=False)
              (wo): Linear(in_features=5120, out_features=2048, bias=False)
              (dropout): Dropout(p=0.1, inplace=False)
              (act): NewGELUActivation()
            )
            (layer_norm): T5LayerNorm()
            (dropout): Dropout(p=0.1, inplace=False)
          )
        )
      )
      (20): T5Block(
        (layer): ModuleList(
          (0): T5LayerSelfAttention(
            (SelfAttention): T5Attention(
              (q): Linear(in_features=2048, out_features=2048, bias=False)
              (k): Linear(in_features=2048, out_features=2048, bias=False)
              (v): Linear(in_features=2048, out_features=2048, bias=False)
              (o): Linear(in_features=2048, out_features=2048, bias=False)
            )
            (layer_norm): T5LayerNorm()
            (dropout): Dropout(p=0.1, inplace=False)
          )
          (1): T5LayerCrossAttention(
            (EncDecAttention): T5Attention(
              (q): Linear(in_features=2048, out_features=2048, bias=False)
              (k): Linear(in_features=2048, out_features=2048, bias=False)
              (v): Linear(in_features=2048, out_features=2048, bias=False)
              (o): Linear(in_features=2048, out_features=2048, bias=False)
            )
            (layer_norm): T5LayerNorm()
            (dropout): Dropout(p=0.1, inplace=False)
          )
          (2): T5LayerFF(
            (DenseReluDense): T5DenseGatedActDense(
              (wi_0): Linear(in_features=2048, out_features=5120, bias=False)
              (wi_1): Linear(in_features=2048, out_features=5120, bias=False)
              (wo): Linear(in_features=5120, out_features=2048, bias=False)
              (dropout): Dropout(p=0.1, inplace=False)
              (act): NewGELUActivation()
            )
            (layer_norm): T5LayerNorm()
            (dropout): Dropout(p=0.1, inplace=False)
          )
        )
      )
      (21): T5Block(
        (layer): ModuleList(
          (0): T5LayerSelfAttention(
            (SelfAttention): T5Attention(
              (q): Linear(in_features=2048, out_features=2048, bias=False)
              (k): Linear(in_features=2048, out_features=2048, bias=False)
              (v): Linear(in_features=2048, out_features=2048, bias=False)
              (o): Linear(in_features=2048, out_features=2048, bias=False)
            )
            (layer_norm): T5LayerNorm()
            (dropout): Dropout(p=0.1, inplace=False)
          )
          (1): T5LayerCrossAttention(
            (EncDecAttention): T5Attention(
              (q): Linear(in_features=2048, out_features=2048, bias=False)
              (k): Linear(in_features=2048, out_features=2048, bias=False)
              (v): Linear(in_features=2048, out_features=2048, bias=False)
              (o): Linear(in_features=2048, out_features=2048, bias=False)
            )
            (layer_norm): T5LayerNorm()
            (dropout): Dropout(p=0.1, inplace=False)
          )
          (2): T5LayerFF(
            (DenseReluDense): T5DenseGatedActDense(
              (wi_0): Linear(in_features=2048, out_features=5120, bias=False)
              (wi_1): Linear(in_features=2048, out_features=5120, bias=False)
              (wo): Linear(in_features=5120, out_features=2048, bias=False)
              (dropout): Dropout(p=0.1, inplace=False)
              (act): NewGELUActivation()
            )
            (layer_norm): T5LayerNorm()
            (dropout): Dropout(p=0.1, inplace=False)
          )
        )
      )
      (22): T5Block(
        (layer): ModuleList(
          (0): T5LayerSelfAttention(
            (SelfAttention): T5Attention(
              (q): Linear(in_features=2048, out_features=2048, bias=False)
              (k): Linear(in_features=2048, out_features=2048, bias=False)
              (v): Linear(in_features=2048, out_features=2048, bias=False)
              (o): Linear(in_features=2048, out_features=2048, bias=False)
            )
            (layer_norm): T5LayerNorm()
            (dropout): Dropout(p=0.1, inplace=False)
          )
          (1): T5LayerCrossAttention(
            (EncDecAttention): T5Attention(
              (q): Linear(in_features=2048, out_features=2048, bias=False)
              (k): Linear(in_features=2048, out_features=2048, bias=False)
              (v): Linear(in_features=2048, out_features=2048, bias=False)
              (o): Linear(in_features=2048, out_features=2048, bias=False)
            )
            (layer_norm): T5LayerNorm()
            (dropout): Dropout(p=0.1, inplace=False)
          )
          (2): T5LayerFF(
            (DenseReluDense): T5DenseGatedActDense(
              (wi_0): Linear(in_features=2048, out_features=5120, bias=False)
              (wi_1): Linear(in_features=2048, out_features=5120, bias=False)
              (wo): Linear(in_features=5120, out_features=2048, bias=False)
              (dropout): Dropout(p=0.1, inplace=False)
              (act): NewGELUActivation()
            )
            (layer_norm): T5LayerNorm()
            (dropout): Dropout(p=0.1, inplace=False)
          )
        )
      )
      (23): T5Block(
        (layer): ModuleList(
          (0): T5LayerSelfAttention(
            (SelfAttention): T5Attention(
              (q): Linear(in_features=2048, out_features=2048, bias=False)
              (k): Linear(in_features=2048, out_features=2048, bias=False)
              (v): Linear(in_features=2048, out_features=2048, bias=False)
              (o): Linear(in_features=2048, out_features=2048, bias=False)
            )
            (layer_norm): T5LayerNorm()
            (dropout): Dropout(p=0.1, inplace=False)
          )
          (1): T5LayerCrossAttention(
            (EncDecAttention): T5Attention(
              (q): Linear(in_features=2048, out_features=2048, bias=False)
              (k): Linear(in_features=2048, out_features=2048, bias=False)
              (v): Linear(in_features=2048, out_features=2048, bias=False)
              (o): Linear(in_features=2048, out_features=2048, bias=False)
            )
            (layer_norm): T5LayerNorm()
            (dropout): Dropout(p=0.1, inplace=False)
          )
          (2): T5LayerFF(
            (DenseReluDense): T5DenseGatedActDense(
              (wi_0): Linear(in_features=2048, out_features=5120, bias=False)
              (wi_1): Linear(in_features=2048, out_features=5120, bias=False)
              (wo): Linear(in_features=5120, out_features=2048, bias=False)
              (dropout): Dropout(p=0.1, inplace=False)
              (act): NewGELUActivation()
            )
            (layer_norm): T5LayerNorm()
            (dropout): Dropout(p=0.1, inplace=False)
          )
        )
      )
    )
    (final_layer_norm): T5LayerNorm()
    (dropout): Dropout(p=0.1, inplace=False)
  )
  (lm_head): Linear(in_features=2048, out_features=32128, bias=False)
)>
Downloading model: bigscience/T0pp
/nfs/scratch/atcs_cot/hf_cache/
Downloading ()lve/main/config.json:   0%|          | 0.00/633 [00:00<?, ?B/s]Downloading ()lve/main/config.json: 100%|| 633/633 [00:00<00:00, 2.08MB/s]
Downloading pytorch_model.bin:   0%|          | 0.00/44.5G [00:00<?, ?B/s]Downloading pytorch_model.bin:   0%|          | 10
…
